kannada_mnist_new.pth (torch, 250195 bytes, 10 tensors)

conv1.weight f4 [6, 1, 5, 5]
0	0x3d4f1dbc	0.050565466
1	0xbe0bd879	-0.13656797
2	0xbd844881	-0.064591415
3	0x3e4d4acb	0.20048063
4	0x3d694fb3	0.056960773
5	0xbd896316	-0.06708352
6	0x3deedf43	0.116636775
7	0xbe8641f7	-0.26222202
8	0xbe1e872d	-0.15481253
9	0x3d96721c	0.073459834
10	0xbe0ede9f	-0.1395211
11	0x3e4c2018	0.19934118
12	0x3e304009	0.17211927
13	0xbd6d95a8	-0.05800405
14	0x3d9d51fa	0.076816514
15	0xbc909860	-0.017650783
16	0x3dec49dc	0.11537525
17	0x3ecd8f76	0.40148515
18	0x3e2aee21	0.16692401
19	0x3e5567db	0.20840399
20	0xbea3a7fb	-0.31964096
21	0xbe40769a	-0.18795243
22	0x3e80fc74	0.25192606
23	0xbdb704f4	-0.089364916
24	0xbe02bba4	-0.12766892
25	0xbd504ffb	-0.050857525
26	0x3ed5a174	0.4172474
27	0x3f07e42b	0.5308253
28	0x3f291709	0.66050774
29	0x3e82d392	0.2555204
30	0x3ebd004f	0.36914298
31	0x3efe51c8	0.4967177
32	0x3e349ed2	0.1763871
33	0x3f03a466	0.5142273
34	0x3ea2e7d5	0.318175
35	0x3cafb253	0.021447336
36	0xbe557b9c	-0.20847934
37	0x3debe3cc	0.11518058
38	0xbdcc1748	-0.09965378
39	0xbe511750	-0.2041905
40	0xbebdb596	-0.37052602
41	0xbee7cfe3	-0.45275792
42	0xbee1bd35	-0.44089666
43	0xbe9880ad	-0.29785672
44	0xbe036813	-0.1283267
45	0xbe2832ad	-0.16425581
46	0xbec59f8f	-0.38598296
47	0xbedae8e1	-0.42755798
48	0xbd8cf7cd	-0.06883202
49	0xbe9cbffb	-0.3061522
50	0x3d83063a	0.06397672
51	0xbe7e0c60	-0.24809408
52	0xbdf22302	-0.118230835
53	0x3e2d4233	0.16919784
54	0x3d4dcc52	0.050243683
55	0x3deb5d4f	0.114924066
56	0x3cd979b6	0.026547294
57	0xbe60bdfc	-0.21947473
58	0x3e1ab3a5	0.15107591
59	0x3e53df2a	0.20690599
60	0xbde733d9	-0.11289186
61	0xbe058014	-0.13037139
62	0x3e27f0a2	0.16400388
63	0x3de9fc17	0.114250354
64	0x3cddca17	0.027073903
65	0x3cc729f3	0.024311995
66	0x3d81275c	0.06306335
67	0x3e2ba697	0.16762768
68	0x3e026411	0.12733485
69	0xbd6f6222	-0.058443196
70	0x3d279b2a	0.04091946
71	0xbe460cc7	-0.19340812
72	0xbcade556	-0.02122752
73	0x3e3597b6	0.17733654
74	0xbe8af55e	-0.27140325
75	0xbd8f53f5	-0.069984354
76	0x392c752d	0.0001644685
77	0xbe96d735	-0.29461065
78	0xbebe8989	-0.37214306
79	0xbd762d66	-0.06010189
80	0xbdb2ae47	-0.08724647
81	0xbe1daf9b	-0.1539902
82	0x3cc000c2	0.023437861
83	0xbe2c5a0d	-0.16831227
84	0xbc207b16	-0.009794971
85	0x3e0be192	0.13660267
86	0x3d6405dc	0.05566965
87	0x3be3aef9	0.0069483486
88	0x3e68ab7d	0.22721668
89	0x3e1ce3e0	0.15321302
90	0x3d1c762e	0.038198642
91	0x3e50ccca	0.20390621
92	0x3d1e519e	0.038652055
93	0xbe41e0ff	-0.18933485
94	0xbd5fe5a2	-0.054662354
95	0xbd480c4e	-0.04883986
96	0x3e2b8b3a	0.1675233
97	0x3eab04b4	0.33402026
98	0x3e71218f	0.23547958
99	0x3e48aa07	0.1959611
100	0xbe9eb2b5	-0.30995718
101	0xbe0bb77e	-0.13644215
102	0x3e8281d5	0.2548968
103	0x3dcd5708	0.100263655
104	0xbeb89db4	-0.36057818
105	0xbdb8004b	-0.08984431
106	0x3de22cbd	0.110436894
107	0xbe13f14f	-0.1444752
108	0x3dfa7d42	0.12230922
109	0xbebdc69f	-0.37065598
110	0xbd9e7536	-0.077372
111	0xbe614d0f	-0.22002052
112	0x3e9ad8a5	0.30243412
113	0xbd9f5772	-0.07780351
114	0xbce79d7d	-0.028273338
115	0xbe518bc9	-0.2046348
116	0xbde592f6	-0.11209671
117	0x3dab66b4	0.083691984
118	0x3f01ad65	0.50655204
119	0x3e9c9c37	0.30587932
120	0xbe58b327	-0.21162091
121	0xbc6ddb29	-0.014517584
122	0x3e884bc2	0.266203
123	0x3e37f2d0	0.1796372
124	0x3ec81dd7	0.39085266
125	0x3c48300d	0.012218487
126	0x3e1bb96a	0.15207449
127	0x3e7f9193	0.24957876
128	0x3d94919b	0.072543345
129	0xbdfe36e8	-0.12412816
130	0x3e240bf8	0.1602019
131	0xbcc244da	-0.023714472
132	0x3e881d95	0.2658507
133	0x3e89763f	0.26848027
134	0x3e5c35e7	0.21504937
135	0xbe3d799c	-0.18503422
136	0x3e613793	0.21993856
137	0xbe1cb3f6	-0.15303025
138	0xbe7cc3fc	-0.24684137
139	0xbdfcef83	-0.12350371
140	0xbe7964c2	-0.24354842
141	0x3ced0e8c	0.0289376
142	0xbd3abf36	-0.04559251
143	0x3d1690ed	0.036759306
144	0x3d95e86b	0.07319721
145	0x3d9fa01a	0.07794209
146	0xbe28b90b	-0.16476838
147	0xbdcdd7b4	-0.10050908
148	0xbe6fb15c	-0.23407501
149	0xbe03a4e3	-0.12855868

conv1.bias f4 [6]
0	0x3eed0807	0.46295187
1	0x3e896db7	0.26841518
2	0xbc098aea	-0.008394936
3	0x3e9de148	0.30835938
4	0x3e902c89	0.28158978
5	0x3d70716a	0.05870191

conv2.weight f4 [16, 6, 5, 5]
0	0x3d4b4e13	0.049635004
1	0xbc276a78	-0.010218255
2	0x3d2775c9	0.040883813
3	0x3d6b27d9	0.05741105
4	0x3deb13d9	0.11478395
5	0x3cdb8a51	0.026799353
6	0x3d92974a	0.07157762
7	0x3ddffc84	0.109368354
8	0x3d3b979c	0.045798883
9	0x3e2bc4c8	0.16774285
10	0xbd30b127	-0.043137696
11	0x3db1f374	0.08689013
12	0x3dbb068e	0.091321096
13	0x3cf685af	0.030093042
14	0x3ddb7598	0.107157886
15	0xbcb5858b	-0.022158405
16	0x3cade93c	0.021229379
17	0x3dc63975	0.09678928
18	0x3d0359d0	0.032068074
19	0x3da218da	0.07914896
20	0x3cc89e30	0.024489492
21	0x3d0d9209	0.034563098
22	0x3d28646e	0.041111402
23	0x3da499e0	0.08037162
24	0xbcd3eb17	-0.025868936
25	0x3c9cc562	0.019137088
26	0x3d2b404b	0.04180936
27	0xbc6cf640	-0.014463007
28	0xbcb81cf0	-0.022474736
29	0x3da145ab	0.07874616
30	0xbdaf1aba	-0.085500196
31	0xbc7a3a91	-0.015272752
32	0x3d6705c1	0.05640197
33	0x3c0d81c7	0.008636898
34	0x3d87320b	0.06601342
35	0xbd32ea30	-0.04368037
36	0x3dc386ba	0.095471814
37	0x3e486780	0.19570732
38	0x3e871db8	0.2638986
39	0x3e293ca5	0.1652704
40	0xbd2a193c	-0.04152797
41	0x3d601403	0.054706585
42	0xbb3696a1	-0.0027860778
43	0x3d25e73f	0.040503737
44	0xbb1def58	-0.0024098959
45	0xbc955bce	-0.018232252
46	0xbcb82fb0	-0.022483677
47	0xbcb72ff7	-0.022361739
48	0x3d6553b3	0.055988025
49	0x3e208d3c	0.15678877
50	0x3d058dc9	0.03260592
51	0xbd6d08ce	-0.057869725
52	0x3d43f3d3	0.04783995
53	0x3d060044	0.032715097
54	0x3c9ada2d	0.018902862
55	0x3d913b55	0.07091395
56	0xba86feef	-0.0010299365
57	0x3a145dc2	0.0005659723
58	0xbd5fad53	-0.054608654
59	0xbca1e63b	-0.019763103
60	0xbc8cded8	-0.017196104
61	0xbd3e1da7	-0.046414997
62	0xbd92ff0a	-0.07177551
63	0x3d84e9b6	0.06489889
64	0x3dcef3d6	0.10105102
65	0x3caea50a	0.021318931
66	0x3d2924da	0.04129491
67	0x3d03d666	0.03218689
68	0x3d8e7d44	0.06957486
69	0x3d7c96fc	0.061667427
70	0xbd6b2983	-0.057412636
71	0x3d50d981	0.050988678
72	0xbd8cffa5	-0.06884698
73	0x3c2960c5	0.010338013
74	0x3dcb81b7	0.099368505
75	0xbdb83486	-0.08994393
76	0xbca99418	-0.0207005
77	0xbd05507f	-0.03254747
78	0x3de44497	0.11145895
79	0xbc59da2f	-0.013296648
80	0xbd7a78f6	-0.061150514
81	0x3d5f328d	0.05449157
82	0x3d616f74	0.05503793
83	0x3e23ec4a	0.16008106
84	0x3e1c82ee	0.1528432
85	0xbd07202e	-0.032989673
86	0x3cfb0584	0.030642278
87	0xbcd3d8c2	-0.025860194
88	0xbd069998	-0.032861322
89	0x3c997ab9	0.018735277
90	0x3d4205ee	0.047368936
91	0xbd8b7fb9	-0.068114705
92	0xbd01040c	-0.031498
93	0x3dc422d6	0.09576957
94	0xbcbf238b	-0.023332378
95	0xbd39cfa5	-0.04536404
96	0x3c5109ca	0.012758682
97	0x3d6738c8	0.056450635
98	0xbcbf37b8	-0.023341998
99	0x3d6218c1	0.05519939
100	0xbc498475	-0.012299647
101	0xba945589	-0.0011316995
102	0x3e22e4b0	0.1590755
103	0x3d1dbbbf	0.038509127
104	0x3dea4f42	0.114408985
105	0x3bf582c4	0.007492395
106	0x3da5f26c	0.08102879
107	0x3e217c34	0.15770036
108	0x3dfd3811	0.123642094
109	0x3e186244	0.14881235
110	0xbd1561c5	-0.036470193
111	0xbd472ebd	-0.048628557
112	0x3da3fbc4	0.08007005
113	0x3d8f3841	0.069931515
114	0x3d6df042	0.058090456
115	0x3c726c7b	0.014796372
116	0x3d034322	0.032046445
117	0xbd142afc	-0.036173806
118	0x3d6ef8aa	0.058342613
119	0x3d01ce0c	0.031690642
120	0xbd51ae8b	-0.051191848
121	0xbd2fa3aa	-0.04288069
122	0xbd82d837	-0.06388896
123	0x3db1ff59	0.08691282
124	0x3d0ae0ad	0.033905674
125	0xbd3fef48	-0.046859056
126	0xbd7c91e7	-0.06166258
127	0xbd97e846	-0.074173495
128	0xbd3bc98c	-0.045846507
129	0x3d410e2e	0.047132663
130	0x3d6a7c70	0.05724758
131	0xbd119e82	-0.035551555
132	0xbd07922b	-0.03309838
133	0x3c289fbe	0.010291992
134	0x3b883bb2	0.004157507
135	0xba7ddb8b	-0.00096838985
136	0x3d4d5fe5	0.05014028
137	0x3bb70115	0.005584846
138	0x3daab084	0.08334449
139	0x3db20ad3	0.08693471
140	0x3da2246f	0.079171054
141	0x3d6859e1	0.05672634
142	0xbd75afa5	-0.05998196
143	0x3ddc521b	0.10757848
144	0xbc81a762	-0.015826885
145	0xbd9bfb1a	-0.07616253
146	0x3c582dbd	0.013194499
147	0x3da1be13	0.07897582
148	0x3bbb2c03	0.0057120337
149	0x3d280973	0.041024636
150	0x3dc95ff4	0.09832755
151	0x3dd7c084	0.10534766
152	0x3dd86bb8	0.10567421
153	0xbda048c0	-0.07826376
154	0xbd90e483	-0.07074835
155	0x3d6fbc66	0.05852928
156	0x3dedbfd1	0.11608852
157	0xbcb17ed1	-0.021666916
158	0x3d3b8d0f	0.04578882
159	0x3c34a879	0.011026495
160	0x3e399082	0.18121532
161	0x3db3477c	0.08753869
162	0xbd814b0c	-0.06313142
163	0xbdef89eb	-0.11696228
164	0x3d424970	0.047433317
165	0x3dd849f6	0.10560982
166	0x3dcde6c2	0.10053779
167	0xbbc659e5	-0.0060531967
168	0xbda33cfd	-0.07970617
169	0x3d3e5ab8	0.046473235
170	0xbaf621d8	-0.0018778397
171	0x3cfc7148	0.030815735
172	0x3cb51573	0.022104954
173	0x3b6e72a3	0.0036384247
174	0xbd389e4b	-0.045072835
175	0x3cf45075	0.029823521
176	0x3dc300fe	0.095216736
177	0xbccdaf17	-0.025107903
178	0xbc8d75e4	-0.017268129
179	0x3dc83879	0.09776396
180	0xbcd0a241	-0.025467994
181	0x3dd864e1	0.10566116
182	0x3d4ebb70	0.050471723
183	0x3dda48b5	0.10658399
184	0x3d976b9d	0.073935725
185	0xbd1cfaf4	-0.038325265
186	0xbc3e95c6	-0.011632388
187	0x3e002789	0.12515081
188	0xbc9030c6	-0.017601382
189	0x3bba151d	0.0056787864
190	0x3e05b0fe	0.13055798
191	0x3d726d01	0.059185985
192	0x3b4b4a4d	0.0031019629
193	0xbd7750c6	-0.060379766
194	0xbdeb7d32	-0.114984885
195	0x3d922034	0.071350485
196	0x3ce92a11	0.028462442
197	0xbb1fcc0a	-0.0024383091
198	0xbdb3e16c	-0.0878323
199	0xbd8dcc77	-0.06923764
200	0x3d50a9c7	0.050943162
201	0x3dbb93c2	0.09159042
202	0x3dcfc461	0.10144878
203	0x3d887b5e	0.066641554
204	0xbcc02b6b	-0.023458203
205	0x3dc2dfc1	0.09515334
206	0x3dace3c7	0.084418826
207	0xbcaae205	-0.020859728
208	0x3cc9a430	0.024614424
209	0x3d8a6523	0.067575715
210	0x3d1df0f1	0.038559858
211	0xbcd21e13	-0.025649106
212	0xbdb587c8	-0.08863789
213	0x3d2699e1	0.040674094
214	0xbd8982e6	-0.0671442
215	0x3dc93cf0	0.09826076
216	0xbd324c3e	-0.04352974
217	0xbcc8a72e	-0.02449378
218	0x3bc383f7	0.005966659
219	0xbdb9c851	-0.090714104
220	0x3c1a1d17	0.00940635
221	0xbcfbe23a	-0.030747522
222	0xbc804695	-0.015658656
223	0xbdc2fd20	-0.09520936
224	0xbd294c9a	-0.04133282
225	0x3d65d426	0.056110524
226	0x3de1ad4f	0.11019384
227	0x3d08c9ae	0.03339546
228	0x3abb693b	0.0014298329
229	0x3cdaf77b	0.026729336
230	0x3dfbba54	0.12291399
231	0xbbb034db	-0.0053773946
232	0xbc166842	-0.00918013
233	0x3d095886	0.03353169
234	0xbd625906	-0.05526068
235	0x3e005d2b	0.12535541
236	0x3c55920c	0.013035309
237	0xbc139112	-0.009006755
238	0xbd4c9be3	-0.049953353
239	0xbd1d7a92	-0.03844697
240	0x3d7643d8	0.060123295
241	0x3c0e99d1	0.008703665
242	0x3d74a9f8	0.059732407
243	0x3d103d54	0.035214737
244	0xbd747c78	-0.059689015
245	0xbd699d87	-0.057034995
246	0x3dd90616	0.10596864
247	0x3d561ecf	0.052275475
248	0x3d3222e3	0.0434903
249	0x3cc1ab70	0.023641318
250	0x3e05a265	0.1305023
251	0x3d06199c	0.032739267
252	0x3d12c507	0.03583243
253	0x3cb6b461	0.022302808
254	0xbd7ca26d	-0.06167834
255	0x3e33adda	0.17546788

conv2.bias f4 [16]
0	0x3cb2f564	0.021845527
1	0x3dd712a3	0.105016015
2	0xbc243582	-0.010022523
3	0x3defe25b	0.11713096
4	0x3d28ede9	0.041242514
5	0xbd56fe18	-0.052488416
6	0x3d25b51a	0.040455915
7	0xbb0749c2	-0.0020643328
8	0x3cbe5f4e	0.023238804
9	0x39e3c8d4	0.00043446443
10	0x3df68529	0.12037117
11	0x3c275449	0.010212966
12	0x3d7f4996	0.062326036
13	0x3c1aa4cd	0.009438706
14	0xbc2240f2	-0.0099031795
15	0x3d9f9bfc	0.077934235

fc1.weight f4 [120, 400]
0	0xbcd7ed45	-0.026358256
1	0x3d382c14	0.04496391
2	0x3d4f92f2	0.050677247
3	0xbd2704f9	-0.040776227
4	0xbb97eff1	-0.0046367575
5	0xbcae620b	-0.021286985
6	0xbc9d4aea	-0.01920076
7	0x3d2db273	0.04240651
8	0x3c9c9b1e	0.019116934
9	0xbc81bda4	-0.015837498
10	0xbd361994	-0.044457987
11	0x3c27b38b	0.0102356775
12	0x3cf163c2	0.029466514
13	0xbd18d891	-0.03731591
14	0xbc789d46	-0.015174216
15	0x3d1822aa	0.037142433
16	0x3d188aea	0.037241854
17	0xbce87e23	-0.02838046
18	0xbd7e44be	-0.062077276
19	0x3b943f0e	0.0045241183
20	0xbc814d10	-0.015783817
21	0x3a69fa25	0.0008925519
22	0x3cc50e06	0.024054538
23	0xbcf4d111	-0.029884847
24	0x3c6fe050	0.014640883
25	0x3d40a92d	0.04703634
26	0xbd2c0399	-0.04199562
27	0xbd235fa2	-0.039886124
28	0x3ccf93b1	0.02533898
29	0x3c9b5761	0.018962564
30	0x3bbd3bf4	0.0057749692
31	0x3cb2921d	0.021798188
32	0x3cb4ea77	0.022084458
33	0x3ca0b3f9	0.019617068
34	0xbcf61dc5	-0.030043492
35	0x3cd0ff62	0.025512401
36	0xbd6ccee7	-0.057814505
37	0x3cf3aa1c	0.0297442
38	0xbbb63258	-0.0055602007
39	0x3ccab3f3	0.02474401
40	0xbce95b02	-0.028485779
41	0xbd80851c	-0.062753886
42	0x3cbc59d6	0.022992056
43	0x3d92f38a	0.07175358
44	0xbb0a24eb	-0.0021079134
45	0x3d1ab174	0.03776689
46	0x3c16dd12	0.009207981
47	0x3c816b76	0.015798312
48	0xbce7d3b3	-0.028299188
49	0xbc129d81	-0.008948685
50	0x3ce3d312	0.027810607
51	0x3cfebab4	0.031094886
52	0xbcfe2c0d	-0.031026864
53	0x3d24dc55	0.040249187
54	0xbd1a2743	-0.0376351
55	0x3bc8d9b8	0.0061294697
56	0x3cb0d405	0.021585474
57	0x3d564004	0.052307144
58	0xbcafcc7f	-0.021459816
59	0x3c881840	0.016613126
60	0x3c0032ad	0.007824582
61	0xbd5b39ae	-0.053521805
62	0x3c08874a	0.008333037
63	0xbcfdcf77	-0.030982716
64	0xbd1e8923	-0.038705003
65	0xbd478f3a	-0.048720576
66	0xbd4226ee	-0.047400407
67	0xbcc32f07	-0.023826135
68	0xbbce6294	-0.0062983725
69	0xbd6d8b04	-0.057993904
70	0xbd08354f	-0.033253964
71	0x3cefb4bb	0.029260984
72	0x3bf6836a	0.00752299
73	0x3ce42391	0.02784899
74	0xbb0ba898	-0.0021310207
75	0xbd3be139	-0.045869086
76	0x3cd24333	0.025666809
77	0x39ed3545	0.00045243851
78	0xbae429e1	-0.00174075
79	0xbcb62f7a	-0.022239435
80	0x3c50df12	0.012748497
81	0x3d27f425	0.04100432
82	0x3d1658c3	0.036705744
83	0xb91ff60c	-0.00015255081
84	0x3c427c56	0.011870464
85	0x39367940	0.00017402042
86	0x3ce4741c	0.027887397
87	0xbb1ad013	-0.0023622557
88	0x3d1fa5e1	0.038976554
89	0x3bbacece	0.0057009226
90	0x3ca479db	0.020077636
91	0x3b3e4b6f	0.002903666
92	0xbcca5589	-0.02469899
93	0x3cc98015	0.024597207
94	0x3c53f012	0.012935655
95	0x3b9b6aa5	0.0047429376
96	0xbca4c332	-0.020112608
97	0xbd242d09	-0.04008201
98	0x3d3e3425	0.046436448
99	0xbc85546f	-0.016275613
100	0x3d50bf4b	0.05096368
101	0x3c8af9f2	0.016964886
102	0x3bdf2f59	0.006811064
103	0xbd52dbf5	-0.0514793
104	0x3d229966	0.039697073
105	0x3d238910	0.039925635
106	0x3c077bc8	0.008269258
107	0xbd27aed8	-0.04093823
108	0xbcff5632	-0.03116903
109	0xbc86b199	-0.016442107
110	0xbbb10597	-0.0054022777
111	0x3ce3f028	0.027824476
112	0xbaaf884c	-0.001339206
113	0x3d25b2a4	0.040453568
114	0xbd3f6ee0	-0.046736598
115	0x3d092d86	0.03349068
116	0x3d3f3748	0.04668358
117	0xbd07b7c5	-0.03313424
118	0x3d09f8d5	0.03368457
119	0xbca98201	-0.020691874
120	0xbb321dc7	-0.0027178393
121	0x3c941317	0.018075509
122	0xbcc38e78	-0.023871645
123	0xbc8dde6e	-0.017317977
124	0xbcaf7e87	-0.021422638
125	0xbd2411be	-0.040055983
126	0x3d2af065	0.041733164
127	0xbd31d76d	-0.043418337
128	0x3d038d47	0.032117154
129	0xbbba3656	-0.005682747
130	0xbc3183de	-0.010834662
131	0xbc05ecc6	-0.008174127
132	0x3912d725	0.00014003793
133	0x3d2023aa	0.039096512
134	0xbd564078	-0.052307576
135	0xbd096a87	-0.033548858
136	0x3ce2ac10	0.027669936
137	0xbd0f95ee	-0.035055093
138	0x3c9bf30f	0.019036798
139	0xbd237bb8	-0.03991291
140	0xbcdf78aa	-0.027279217
141	0xbc9468e5	-0.018116424
142	0xbd0173fd	-0.031604756
143	0xbd3a9758	-0.04555449
144	0xbceebd40	-0.029142976
145	0xbca0b342	-0.019616727
146	0xbb929530	-0.004473351
147	0x3c94659c	0.018114857
148	0xbc731a07	-0.014837748
149	0x3d241140	0.040055513
150	0xbc5a8ca7	-0.013339198
151	0x3d63290d	0.05545907
152	0xbc86c938	-0.01645337
153	0x3bd579d0	0.0065147653
154	0xbc93ddae	-0.018050041
155	0xbcfa9981	-0.030590774
156	0xbca4bd92	-0.020109925
157	0x3c3c0b80	0.011477351
158	0x3c3fe399	0.011711978
159	0xbc70af55	-0.01469024
160	0x3d073eab	0.03301875
161	0x3d536e61	0.051618937
162	0x3cf28596	0.029604714
163	0x3c20efad	0.009822768
164	0x3c98e98a	0.018666048
165	0x3caa473d	0.020785922
166	0x3d45fcd0	0.048336804
167	0xbd4e64d9	-0.050389145
168	0xbd7b0d7f	-0.061292168
169	0x3c45e8d0	0.012079433
170	0x3c40c7eb	0.011766414
171	0x3bbd95cf	0.005785681
172	0xbc9bf5b9	-0.019038068
173	0x3d0084af	0.031376537
174	0xbd2068f2	-0.039162584
175	0xbb9a0cb2	-0.0047012204
176	0x3c4a302e	0.0123405885
177	0xbd14f886	-0.036369823
178	0x3d321801	0.043479923
179	0x3d0132b7	0.031542506
180	0xbd07e485	-0.033176918
181	0x3cbbe559	0.02293651
182	0x3cc81d8e	0.024428155
183	0x3cbf496f	0.023350446
184	0x3d08b967	0.03337994
185	0xbc1fcafa	-0.009752983
186	0x3cbd9a71	0.023144932
187	0x3d280865	0.04102363
188	0x3d398cf5	0.045300443
189	0xbd201211	-0.03907973
190	0x3ceb535a	0.028726269
191	0xbc66a77b	-0.014078016
192	0x3cacf743	0.021113997
193	0x3c78eaa8	0.015192665
194	0x3b2fa1c8	0.002679931
195	0xbd481495	-0.048847754
196	0xbc9b2695	-0.018939296
197	0xbcd74acd	-0.026280785
198	0x3caf8e8f	0.021430282
199	0xbbad0bfa	-0.0052809687
200	0xbc82d73b	-0.01597177
201	0xbd25ccb5	-0.040478427
202	0x3d91faad	0.07127891
203	0xbd0b0a93	-0.03394563
204	0x3d07aa5b	0.033121448
205	0xbd304b8d	-0.0430408
206	0xbd510820	-0.05103314
207	0x3d2d8f6a	0.0423731
208	0x3a6eba4c	0.000910674
209	0xbd02e206	-0.031953834
210	0x3cfcf60c	0.030879043
211	0x3cb00d6e	0.021490779
212	0x3d37cbdd	0.044872154
213	0x3d2ff52d	0.042958427
214	0x38eba098	0.00011235586
215	0xbb0294bc	-0.0019925078
216	0x3d09802f	0.03356951
217	0x3da1ffdd	0.0791013
218	0xbd0aae61	-0.033857707
219	0xbc0d34f3	-0.008618581
220	0xbd0d5fef	-0.034515318
221	0xbd59de6d	-0.053190637
222	0xbc7d1b8d	-0.015448463
223	0x3cbc64b1	0.022997232
224	0xbca7529b	-0.020425132
225	0xbc9185ce	-0.017763998
226	0xbcfe2639	-0.031024085
227	0x3b7201b6	0.003692729
228	0xbd616443	-0.055027258
229	0x3d05273b	0.032508116
230	0xbcfcf16f	-0.030876843
231	0xbd00b01a	-0.031417944
232	0xbc9d756f	-0.019221036
233	0x3cbe73a7	0.023248507
234	0xbbe816a6	-0.007082778
235	0x3cd72e97	0.026267333
236	0xba5932b4	-0.00082854484
237	0x3d20d515	0.03926571
238	0xbd664a1f	-0.05622303
239	0xbcb1a4ba	-0.021684993
240	0xbd4af0b0	-0.049545944
241	0x3ca00850	0.019535214
242	0x3d48f5fc	0.049062714
243	0xbd35d55e	-0.044392936
244	0x3a8411f1	0.0010076148
245	0xbd720fae	-0.059096985
246	0xbcf2236a	-0.029557902
247	0x3c334628	0.0109420195
248	0x3d23ef07	0.040022876
249	0xbd14dec1	-0.036345247
250	0xbcc0f353	-0.023553526
251	0x3d030081	0.031982902
252	0xbc3f4614	-0.011674423
253	0x3d35c41e	0.044376485
254	0x3cb0fffe	0.021606442
255	0x3d41416a	0.047181524

fc1.bias f4 [120]
0	0xbd2a2493	-0.041538786
1	0x3d30bb23	0.043147217
2	0xbceedc81	-0.029157879
3	0xbbdad0b2	-0.0066777105
4	0xbcd14027	-0.025543286
5	0xbd21ba3d	-0.03948425
6	0x3d71cb31	0.05903167
7	0x3d4235ee	0.047414713
8	0x3cbe2085	0.023208866
9	0xbc32c407	-0.010910994
10	0xbbce09c9	-0.0062877876
11	0x3c99afd0	0.018760592
12	0xbb4bec5d	-0.0031116225
13	0xbcb879a0	-0.022518933
14	0xbc7ab26b	-0.015301327
15	0xbc250f65	-0.010074471
16	0xbc3e1f9a	-0.011604214
17	0x3cb3aad0	0.021932036
18	0x3cf708c7	0.030155553
19	0xbcc7a05b	-0.024368456
20	0xbc879f00	-0.01655531
21	0xbcae1804	-0.021251686
22	0x3d251faa	0.0403134
23	0xbd282061	-0.041046504
24	0x3d12de75	0.035856683
25	0xbd07876f	-0.033088144
26	0xbbd2f2c3	-0.006437631
27	0x3c2324a2	0.009957464
28	0x3c987f85	0.018615494
29	0x3bf34673	0.0074241697
30	0xbb9ef229	-0.004850645
31	0x3bf7083d	0.007538824
32	0xbca5990c	-0.02021458
33	0x3d638173	0.055543374
34	0xbd00dd98	-0.03146133
35	0xbcb9e93b	-0.02269422
36	0xbc15b5c2	-0.009137573
37	0x3c810d40	0.015753388
38	0x3cfa1be1	0.030530872
39	0xbbc9055c	-0.006134672
40	0xbcd214fc	-0.025644772
41	0x3bca4205	0.006172421
42	0xbd3f7ebb	-0.04675172
43	0x3ca54b31	0.020177456
44	0x3d2a662f	0.041601356
45	0x3bd0075a	0.0063485326
46	0x3d661367	0.056170847
47	0x3d087270	0.03331226
48	0x3d1cde69	0.038298044
49	0xbcd84e70	-0.02640459
50	0x3bd28dbc	0.0064255875
51	0x3cb91053	0.022590792
52	0x3d24280b	0.04007725
53	0x3b51fa3e	0.0032040025
54	0x3cce6802	0.02519608
55	0xbcd99a7c	-0.026562922
56	0x3cf61ad7	0.030042095
57	0x3c1ca6bb	0.009561236
58	0xbcb1da89	-0.021710651
59	0x3da32960	0.07966876
60	0x3cb66da4	0.022269078
61	0xbba9de24	-0.005183952
62	0x3d77e4bc	0.060520872
63	0x3d4d3381	0.050097946
64	0x3c604c4c	0.013690066
65	0x3c535a49	0.012899944
66	0x3d5691a0	0.052384973
67	0x3c97fdb4	0.018553592
68	0x3cb0124b	0.021493098
69	0x3ca51a98	0.020154282
70	0x3bf8b6e4	0.0075901616
71	0x3d21b6e5	0.039481062
72	0xbd3aad5a	-0.045575477
73	0xbcfdc7ac	-0.030979
74	0x3cb33230	0.021874517
75	0x3ce54ae9	0.027989822
76	0x3d27647c	0.040867314
77	0x3ce615e1	0.028086605
78	0x3d54436e	0.05182212
79	0xbd096b29	-0.03354946
80	0x3c26a298	0.010170601
81	0xbd02c668	-0.031927496
82	0x3caa95d8	0.020823404
83	0xbbef15b2	-0.0072962875
84	0x3d18fe6f	0.03735202
85	0xbd287cea	-0.041134752
86	0x3bd1743e	0.006392031
87	0x3d2c69e0	0.042093158
88	0xbd016b17	-0.03159627
89	0x3d5d584c	0.054039285
90	0x3b8406ed	0.004029146
91	0x3d3ff6f0	0.046866357
92	0x3d6b0b99	0.057384107
93	0x3bc1eba4	0.005917983
94	0xbd43306a	-0.047653593
95	0xbd4b74df	-0.049672004
96	0xbc80db2a	-0.015729506
97	0x3c04461c	0.008073356
98	0xbcfd0052	-0.030883942
99	0x3a4288a9	0.00074208766
100	0xbc7c7a2c	-0.015409987
101	0x3c48ec1d	0.012263325
102	0x3ce0d245	0.027444014
103	0x3cba5ab7	0.022748334
104	0xbd1dad9a	-0.038495637
105	0x3d1446fb	0.036200505
106	0x3d46960d	0.048482943
107	0xbd31b270	-0.043383062
108	0xbd3c3c23	-0.04595579
109	0xbbe3d44a	-0.006952797
110	0x3d22dba7	0.039760258
111	0x3babb9aa	0.0052406387
112	0xbcc80e0b	-0.024420759
113	0x3c96e16e	0.01841804
114	0xbd371d86	-0.04470589
115	0xbbe2f050	-0.00692562
116	0x3b806352	0.00391809
117	0xbc09c741	-0.008409322
118	0xbb2ca098	-0.0026340839
119	0x3d85e9fb	0.06538769

fc2.weight f4 [84, 120]
0	0xbdd69106	-0.1047688
1	0xbdf0eb67	-0.117636494
2	0x3c450261	0.012024493
3	0x3de9147d	0.11380861
4	0x3b324ee0	0.0027207658
5	0x3d7e998a	0.062158145
6	0x3d8d0087	0.06884866
7	0xbdcaa3a1	-0.09894491
8	0xbda0b823	-0.07847621
9	0x3d317b93	0.04333074
10	0xbd2d1d33	-0.042264175
11	0xbc12dcd1	-0.00896378
12	0x3ce43633	0.027857875
13	0x3c463767	0.01209817
14	0x3d701195	0.058610518
15	0x3c064bb1	0.008196757
16	0xbd182dd3	-0.037153076
17	0x3ba29ff2	0.0049629146
18	0x3d2e93d8	0.042621464
19	0xb8e7c2db	-0.00011051233
20	0xbce2f179	-0.027703034
21	0x3d119c33	0.035549354
22	0x3d064132	0.03277702
23	0xbd83e3c0	-0.06439924
24	0x3d0d6754	0.03452237
25	0x3d598829	0.053108368
26	0x3be4722f	0.0069716196
27	0x3d5ab92b	0.053399246
28	0xbd798cf0	-0.060925424
29	0xbd8a5309	-0.06754119
30	0x3d779cec	0.060452387
31	0x3cae8faa	0.021308739
32	0xbd03f472	-0.032215543
33	0xbd8adbb8	-0.06780189
34	0xbd42792d	-0.047478843
35	0x3da2541a	0.07926197
36	0x3d4504be	0.048100226
37	0x3bcc5e8f	0.006236858
38	0x3d49954e	0.049214654
39	0x3d884c74	0.06655207
40	0xbd2ac365	-0.04169025
41	0xbd900809	-0.070327826
42	0xbd829c95	-0.06377522
43	0x3d23f95d	0.040032733
44	0xbdb5d6ec	-0.08878884
45	0x3d7946b3	0.06085844
46	0x3dee29a9	0.1162904
47	0x3d83c5fc	0.06434247
48	0xbd990f99	-0.07473678
49	0x3c35c7a8	0.011094965
50	0xbd29aeed	-0.041426588
51	0x3da1ca11	0.07899869
52	0xbd979f19	-0.07403392
53	0x3d9442bb	0.0723929
54	0x3d071ce0	0.03298652
55	0x3da02019	0.07818622
56	0x3d5f7dd8	0.054563373
57	0x3d0adb48	0.03390053
58	0xbca3d744	-0.020000108
59	0x3dc26861	0.09492565
60	0x3d8bd242	0.06827213
61	0xbca6390d	-0.020290876
62	0x3ccff6ab	0.025386175
63	0xbcd40217	-0.025879903
64	0xbd18b970	-0.037286222
65	0x3d4df38e	0.0502811
66	0xbcab5128	-0.020912722
67	0x3cd99676	0.026561003
68	0x3d4f4fb6	0.050613128
69	0x3dc612e0	0.09671569
70	0xbced7adf	-0.028989254
71	0x3d8604b0	0.06543863
72	0xbceb3b54	-0.028714813
73	0x3d75e518	0.060032934
74	0x3d1d018f	0.038331565
75	0x3e32152f	0.17390893
76	0x3d3edafd	0.046595562
77	0xba87d415	-0.0010362888
78	0x3d010a26	0.03150382
79	0xbd70ac2b	-0.058757942
80	0xbdae5ad7	-0.0851342
81	0x3de4465a	0.11146231
82	0xbd941bf3	-0.072318934
83	0xbde179c8	-0.11009556
84	0xbd839dd9	-0.064265914
85	0xbd0d81c6	-0.03454759
86	0xbda4173e	-0.080122456
87	0x3dab3b2b	0.08360895
88	0x3b790a9e	0.0038000713
89	0x3d33defc	0.043913826
90	0xbd57825c	-0.052614555
91	0xbd8c4223	-0.06848552
92	0x3bebd225	0.007196682
93	0xbd13b3c2	-0.036060102
94	0xbc92e364	-0.017930694
95	0xbd250567	-0.040288355
96	0xbd286948	-0.04111603
97	0xbd607044	-0.054794565
98	0x3d368388	0.04455903
99	0xbd836732	-0.06416167
100	0x392cb910	0.0001647214
101	0xbd1a2745	-0.037635107
102	0xbd0b475f	-0.03400361
103	0xbe01951b	-0.12654535
104	0xbdb9bcfa	-0.090692475
105	0xbc6f5f39	-0.014610105
106	0x3d1b6294	0.03793581
107	0x3d5cc71d	0.053900827
108	0x3d80ca70	0.06288612
109	0xbd8f66a9	-0.07002003
110	0xbbd80966	-0.0065929173
111	0x3b196d09	0.0023410937
112	0xbc8b0f93	-0.0169752
113	0xbd4bd52e	-0.04976385
114	0x3da628b4	0.08113232
115	0xbb927d59	-0.004470509
116	0xbcafbfaa	-0.021453697
117	0x3ceffc54	0.029295124
118	0x3ddb04ca	0.10694273
119	0x3da0ee3c	0.078579396
120	0x3d613821	0.05498517
121	0xbdb16a4d	-0.086628534
122	0x3d8cce88	0.0687533
123	0x3dab34d5	0.08359686
124	0x3af8a500	0.0018970072
125	0xbd642496	-0.055698954
126	0xbd6647ef	-0.056220945
127	0xbbafd36c	-0.0053657796
128	0xbda986ab	-0.08277639
129	0xbd96ebb3	-0.07369175
130	0xbcdc7f18	-0.026916072
131	0x3c9dabe3	0.019247001
132	0xbd73c0d4	-0.059510067
133	0xbc4bf807	-0.012449271
134	0x3db40cad	0.0879148
135	0x3daa09bf	0.0830264
136	0x3d6183f5	0.055057485
137	0x3d971ece	0.073789224
138	0xbdb38248	-0.087650836
139	0x3d88a46b	0.06671985
140	0xbd990895	-0.0747234
141	0xbd9997b0	-0.07499635
142	0xbd4bef25	-0.049788613
143	0xbd7632a1	-0.060106877
144	0x3ced0985	0.028935203
145	0x3d06e488	0.032932788
146	0xbd8954d0	-0.0670563
147	0xbd98a18b	-0.07452687
148	0xbd4a6711	-0.049414698
149	0x3d4c8afa	0.049937226
150	0xbdb8bb7a	-0.09020133
151	0x3d01ade5	0.03165998
152	0xbd59e841	-0.05320001
153	0x3db06014	0.086120754
154	0xbd3ea6d4	-0.04654582
155	0x3c89d3bd	0.016824597
156	0x3db9afdd	0.090667464
157	0xbcdb6ab0	-0.026784271
158	0xbdb16667	-0.0866211
159	0x3d1fe09a	0.039032556
160	0xbdb2015e	-0.08691667
161	0xbd45cae3	-0.04828919
162	0x3d89777f	0.06712245
163	0xbc65c5dc	-0.014024224
164	0x3d35ea84	0.044413105
165	0xbcd06cad	-0.025442446
166	0x3ce492b5	0.027901987
167	0xbc6c9440	-0.014439642
168	0xbc35b903	-0.0110914735
169	0x3d61dfb0	0.055144966
170	0xbd06dce0	-0.032925487
171	0x3d40f157	0.04710516
172	0x3d8510a0	0.064973116
173	0xbda15214	-0.07876983
174	0xbd42fe42	-0.04760576
175	0x3d963ba6	0.07335596
176	0xbd9314ae	-0.07181679
177	0x3a28a4a8	0.0006433227
178	0xbd09169a	-0.03346882
179	0xbd707d81	-0.05871344
180	0xbd660853	-0.056160282
181	0x3d812315	0.063055195
182	0xbcb8f78a	-0.022578973
183	0xbd092250	-0.03347999
184	0xbc1a3469	-0.00941191
185	0x3ce2b8c4	0.027675994
186	0x3d024f74	0.031814054
187	0x3d4cee2a	0.05003182
188	0x3d2dafce	0.04240399
189	0xbd4337fb	-0.04766081
190	0xbd843c53	-0.064568184
191	0x3a177380	0.0005777404
192	0x3d0f146d	0.03493159
193	0x3d463813	0.04839332
194	0xbcb56b7f	-0.022145985
195	0xbdad1640	-0.084515095
196	0xbc5e3839	-0.013563209
197	0xbd8c2a34	-0.06843987
198	0xbb267bea	-0.0025403448
199	0x3cb33c50	0.021879345
200	0x3db10142	0.08642818
201	0xbd0dbc7c	-0.03460358
202	0x3c0161c0	0.007896841
203	0xbd1c6f30	-0.038191974
204	0x3db9e211	0.09076322
205	0x3d626842	0.05527521
206	0xbd4967e8	-0.04917136
207	0x3d9b8362	0.07593419
208	0xbc833776	-0.016017657
209	0x3d6587a4	0.05603756
210	0xbd35c5be	-0.044378035
211	0xbd8bffff	-0.06835937
212	0x3d111712	0.035422392
213	0xbd4bf0fd	-0.04979037
214	0x3d86b882	0.06578161
215	0x3dab9b08	0.08379179
216	0xbcc1ee50	-0.023673207
217	0xbce9a741	-0.028522136
218	0x3c5f4ca1	0.01362911
219	0x3c8b366c	0.016993724
220	0x3da3bb10	0.07994664
221	0xbbd040db	-0.0063553876
222	0x3db68705	0.08912472
223	0xbd883616	-0.06650941
224	0xbd96af5d	-0.07357667
225	0x3d306bf1	0.04307169
226	0xbd9c7b46	-0.076407
227	0xbda1b036	-0.07894938
228	0xbd27c7cf	-0.040962037
229	0x3d11493a	0.035470225
230	0x3d125b53	0.035731625
231	0x3c80827c	0.01568722
232	0x3d1e358a	0.038625278
233	0xbd9f76eb	-0.07786354
234	0x3d9b597d	0.07585428
235	0xbb8475e7	-0.0040423754
236	0xbc05a59d	-0.008157161
237	0x3d97a9d4	0.07405439
238	0xbba21d51	-0.0049473424
239	0x3d766c2b	0.06016175
240	0x3d828577	0.06373113
241	0x3d8efde6	0.06982021
242	0xbd69c94a	-0.05707673
243	0xbda4defc	-0.080503434
244	0xbd30a5c4	-0.043126836
245	0xbd2da40b	-0.04239277
246	0xbdb03670	-0.08604133
247	0x3beeae75	0.0072839805
248	0xbda18714	-0.07887092
249	0xbda8c289	-0.0824023
250	0x3b91a6c0	0.004444927
251	0xbd76bf55	-0.060241062
252	0x3d53398c	0.051568553
253	0x3d58e456	0.052952133
254	0xbd8e3450	-0.069435716
255	0xbd3d5d99	-0.04623184

fc2.bias f4 [84]
0	0x3d008828	0.03137985
1	0xbcae4787	-0.021274341
2	0xbc97017e	-0.018433329
3	0xbda89dbd	-0.08233211
4	0x3e0338c7	0.12814628
5	0x3dd26121	0.10272432
6	0xbd771626	-0.060323857
7	0xbaf931b4	-0.0019012005
8	0x3d3d5b02	0.04622937
9	0x3dbac1f2	0.091190234
10	0xbd05abfd	-0.032634724
11	0xbcc86121	-0.024460377
12	0xbd2cfc7f	-0.042232987
13	0x3c83e300	0.016099453
14	0x3ca9e000	0.020736694
15	0x3da4b3b6	0.0804209
16	0xbd91635c	-0.070990294
17	0x3d87b266	0.06625824
18	0x3cedb47a	0.029016722
19	0x3d2223b3	0.039584827
20	0x3d877bee	0.066154346
21	0xbd90b6ff	-0.07066154
22	0x3d6be9b4	0.057595924
23	0xbd56c992	-0.052438326
24	0xbd037501	-0.032094005
25	0x3d9ce012	0.076599255
26	0x3c65618d	0.014000309
27	0x3d04050d	0.03223138
28	0x3d53b072	0.051681943
29	0xbc6171f0	-0.013760075
30	0xbd862a4a	-0.06551035
31	0xbd823b3e	-0.06358956
32	0x3baf0a4f	0.005341805
33	0x3d8d3553	0.068949364
34	0xbcfd5a5a	-0.030926872
35	0x3e0b5d03	0.136097
36	0x3db07533	0.08616104
37	0x3cca36b0	0.02468428
38	0x3c25c4b8	0.010117702
39	0xbce42ba6	-0.027852844
40	0xbd76fb94	-0.060298517
41	0xbc9d971e	-0.019237097
42	0x3d01be41	0.03167558
43	0x3d169c72	0.03677029
44	0xbd427672	-0.04747624
45	0xbcd19bf4	-0.02558706
46	0x3d01cced	0.031689573
47	0xbce1994c	-0.027538918
48	0x3d48fce9	0.04906932
49	0xbd82a3cf	-0.063789
50	0xbdaabc0d	-0.08336649
51	0xbcaaf7d5	-0.020870129
52	0xbdaf1e5a	-0.08550711
53	0x3d89fdc4	0.06737855
54	0x3c86dd54	0.01646296
55	0x3c08c11b	0.008346821
56	0xbd3bf752	-0.04589016
57	0x3dc87f9a	0.09789963
58	0xbd87700d	-0.06613169
59	0xbcc3ff13	-0.02392534
60	0xbcdb0e96	-0.026740354
61	0x3d790af3	0.060801458
62	0xbca4848c	-0.020082735
63	0x3d423430	0.04741305
64	0x3d4b3d6d	0.049619127
65	0xbbd23dc8	-0.0064160563
66	0x3af42d36	0.0018629197
67	0x3d2c4f97	0.04206809
68	0xbc3cc18f	-0.011520757
69	0x3d91bca5	0.07116059
70	0x3c47f47a	0.012204284
71	0x3d9e9737	0.07743686
72	0xbd9c849c	-0.07642481
73	0xbdc40943	-0.09572079
74	0xbdc0d454	-0.094154984
75	0xbd62242e	-0.055210285
76	0x3c85949f	0.01630622
77	0x3d08bd39	0.03338358
78	0xbd962bc4	-0.073325664
79	0x3d8c674b	0.06855639
80	0x3db96f94	0.09054485
81	0x3d9b5c88	0.07586008
82	0xbc9b06df	-0.018924175
83	0x3dc630b2	0.09677257

fc3.weight f4 [10, 84]
0	0x3e6149a4	0.22000748
1	0x3dcaa978	0.09895605
2	0xbcdfea1b	-0.02733331
3	0x3b0f3f51	0.0021857808
4	0x3e205c2e	0.15660164
5	0x3dfc48a6	0.12318544
6	0xbda5ae83	-0.08089926
7	0xbe01aa9d	-0.1266274
8	0x3e1dd1fe	0.15412137
9	0x3e6c7e75	0.23095115
10	0xbe1c99f8	-0.1529311
11	0x3e1c3307	0.1525384
12	0x3b85ec5b	0.0040870137
13	0x3dc43deb	0.095821224
14	0x3c51eeba	0.0128132645
15	0xbd85fce8	-0.06542379
16	0xbddc362e	-0.107525215
17	0xbdbfdca3	-0.09368255
18	0xbd1bc03f	-0.038025137
19	0x3dedb83b	0.11607405
20	0x3da6b9e4	0.081409246
21	0xbdde7467	-0.10862046
22	0x3e71c0ca	0.236087
23	0x3dda992e	0.10673748
24	0xbd3e8389	-0.04651216
25	0x3bd5e70e	0.006527788
26	0xbe1270c5	-0.1430083
27	0x3d4578d6	0.04821094
28	0x3cbdf8d1	0.023189934
29	0x3ca06904	0.019581325
30	0xbda0259f	-0.07819676
31	0xbce837df	-0.028346954
32	0xbcf54fc2	-0.029945258
33	0x3dae122b	0.08499559
34	0x3d49db04	0.049281135
35	0xbcd7401c	-0.026275687
36	0xbd3cdade	-0.046107166
37	0xbd0f8242	-0.035036333
38	0xbe2fd70b	-0.17171876
39	0x3d1939e6	0.037408732
40	0x3e15b8be	0.14621255
41	0xbcbdd41e	-0.023172434
42	0x3c73d01f	0.014881163
43	0x3c84317e	0.016136881
44	0x3b17a500	0.002313912
45	0x3da0f76a	0.078596905
46	0xbdec28fe	-0.11531256
47	0xbe0ecccf	-0.13945316
48	0xbe0e9099	-0.13922347
49	0xbd134a28	-0.035959393
50	0x3d91e854	0.07124391
51	0xbdf397ff	-0.11894225
52	0xbdd3cb6e	-0.103415355
53	0x3deedc17	0.116630726
54	0x3dc47b93	0.095938824
55	0x3e19c4e5	0.15016516
56	0xbe316c5c	-0.17326492
57	0x3d8890ac	0.06668219
58	0x3d5a7ad3	0.05333979
59	0xbcff22df	-0.031144558
60	0xbdb8cb4b	-0.0902315
61	0x3da816e7	0.08207493
62	0xbda514d5	-0.08060614
63	0xbdfa6981	-0.122271545
64	0xbd4c042c	-0.049808666
65	0x3dd30420	0.10303521
66	0x3d7e047e	0.062016003
67	0xbdf171e7	-0.11789303
68	0xbc3e81d2	-0.011627631
69	0xbdcf7a9a	-0.10130806
70	0xbd85e17e	-0.0653715
71	0xbdf5a5ac	-0.1199449
72	0x3b767c90	0.0037610866
73	0x3db1d8bc	0.08683917
74	0x3d2fc317	0.04291066
75	0x3d34780e	0.044059806
76	0xbd83e5c3	-0.06440308
77	0x3b82e4d4	0.0039945636
78	0x3d8f5cff	0.070001595
79	0xbe33e46c	-0.17567605
80	0x3cd6ae37	0.026206119
81	0xbd608770	-0.054816663
82	0x3d3ecb88	0.04658082
83	0x3e53be01	0.2067795
84	0x3dac489a	0.08412285
85	0x3da23c9a	0.07921715
86	0xbd9847f1	-0.07435597
87	0xbcd73fc7	-0.026275529
88	0x3dde4239	0.10852475
89	0xbe36ef43	-0.17864709
90	0x3dbc890b	0.09205826
91	0xbca26e2b	-0.019827923
92	0x3e8abf5e	0.27099127
93	0xbe0bd16b	-0.13654105
94	0x3ce671b7	0.028130395
95	0x3d993dc0	0.07482481
96	0xbd13af85	-0.03605606
97	0xbd283b41	-0.041072134
98	0x3c0a809a	0.008453513
99	0x3d366ab5	0.044535358
100	0xbd42d0bb	-0.047562342
101	0x3b91d149	0.0044499976
102	0xbe0ab4f5	-0.13545592
103	0xbdccce86	-0.10000329
104	0xbe349699	-0.17635573
105	0xbcdf05ac	-0.027224384
106	0xbe6dc189	-0.23218359
107	0x3e0b9280	0.13630104
108	0xbdbbd65e	-0.09171747
109	0xbe09ebc8	-0.1346885
110	0xbd2e7b01	-0.042597774
111	0x3e037e98	0.1284126
112	0xbc415e40	-0.011802256
113	0xbce2b7a8	-0.027675465
114	0xbc3d3019	-0.011547112
115	0x3e3b057c	0.18263811
116	0xbe065c78	-0.13121212
117	0xbc5eb319	-0.013592505
118	0x3d031224	0.031999722
119	0x3dd3b0a4	0.10336426
120	0x3d8b93de	0.06815313
121	0x3e429deb	0.19005553
122	0xbe113300	-0.14179611
123	0xbdc881e1	-0.097903974
124	0xbd74d01d	-0.059768785
125	0xbc6e2b93	-0.014536756
126	0x3d69204c	0.056915566
127	0x3e0f500d	0.1399538
128	0xbd875217	-0.06607454
129	0xbdd68921	-0.10475374
130	0xbde8eea4	-0.11373642
131	0x3df526bb	0.11970278
132	0xbd4554e8	-0.048176676
133	0x3d85ab15	0.06526772
134	0x3dabac6c	0.08382496
135	0xbd032daf	-0.03202599
136	0xbd44692c	-0.047951862
137	0x3d5362a0	0.051607728
138	0x3c87eb44	0.016591676
139	0xbe2cd11a	-0.16876641
140	0xbe5a03ab	-0.21290462
141	0x3e0c0bc3	0.13676362
142	0xbdc9b868	-0.09849626
143	0x3da4a5e4	0.080394536
144	0x3d70edc6	0.05882051
145	0xbdab55c5	-0.083659686
146	0xbd24cb34	-0.040232852
147	0x3defa8b6	0.11702101
148	0xbd7aff10	-0.061278403
149	0x3db456db	0.08805629
150	0x3d3fca8c	0.046824023
151	0x3db41d73	0.087946795
152	0xbe195cd2	-0.14976814
153	0xbdb086bd	-0.08619449
154	0xbd5441bd	-0.051820505
155	0xbe20655f	-0.1566367
156	0xbdde93c3	-0.10868027
157	0x3dbcff3a	0.09228368
158	0x3d879b25	0.06621388
159	0x3dc83dce	0.09777413
160	0x3db0c212	0.08630766
161	0x3de115ed	0.1099051
162	0xbc253f7c	-0.010085937
163	0xbd9acffa	-0.075592
164	0xbd75f5bd	-0.060048807
165	0xbcda8383	-0.026674038
166	0xbdd9d35d	-0.106360175
167	0x3e2b46a0	0.1672616
168	0xbc8b042e	-0.016969766
169	0x3bdca544	0.0067335684
170	0x3dc94c23	0.09828975
171	0x3d9874f3	0.07444181
172	0xbd84ece5	-0.064904965
173	0xbe3c34b0	-0.18379474
174	0x3d8f2285	0.06989006
175	0xbc8ef83b	-0.01745235
176	0x3de4efae	0.11178528
177	0x3e5cff3a	0.21581736
178	0x3d8b2a76	0.06795208
179	0x3de0f8a6	0.10984926
180	0x3aedf139	0.0018153555
181	0x3cf02dfd	0.029318804
182	0xbd1aa78a	-0.037757434
183	0x3df41a85	0.11919121
184	0x3db4ba30	0.08824575
185	0x3d91f095	0.071259655
186	0x3d85a5e2	0.0652578
187	0xbc5df146	-0.013546294
188	0xbe14eea1	-0.14544155
189	0x3c04f47b	0.008114929
190	0x3c9b1ea9	0.018935518
191	0x3dbddc0b	0.092704855
192	0xbdbc0dc6	-0.091823146
193	0xbdebf0a9	-0.11520512
194	0xbddcd84f	-0.10783445
195	0x3ddfd687	0.1092959
196	0xbe56e6fb	-0.2098655
197	0x3dca3495	0.098733105
198	0xbd847305	-0.06467251
199	0x3ddaf971	0.106921084
200	0xbde20832	-0.110367194
201	0xbd4c1cf0	-0.049832284
202	0x3dce696c	0.100787014
203	0xbdb74516	-0.08948724
204	0xbe8292f7	-0.2550275
205	0xbdce05e0	-0.10059714
206	0x3e271402	0.16316226
207	0x3d457a56	0.04821237
208	0x3d9b81d3	0.075931214
209	0x3e150622	0.1455312
210	0x3dc0995a	0.094042495
211	0x3d8e55a8	0.069499314
212	0xbcb01310	-0.021493465
213	0xbd39f2ae	-0.045397453
214	0x3df22769	0.11823923
215	0x3e119352	0.14216354
216	0xbd3b6e10	-0.04575926
217	0xbd2e72c7	-0.04258993
218	0x3c1a68e3	0.009424421
219	0x3e4cf7fc	0.20016474
220	0xbd89abfb	-0.06722256
221	0xbd8bba4d	-0.068226434
222	0xbdc08251	-0.09399856
223	0xbd61b994	-0.05510862
224	0xbd0299bf	-0.031884905
225	0xbd8e2d97	-0.06942289
226	0xbd14627f	-0.036226746
227	0x3ce3a21c	0.02778726
228	0xbceb36bf	-0.028712628
229	0x3e0e9562	0.13924173
230	0x3db84f35	0.089994825
231	0xbd87dff5	-0.06634513
232	0xbcd53b86	-0.02602936
233	0x3c1358bb	0.008993323
234	0x3d59ea21	0.0532018
235	0xbe0674b0	-0.1313045
236	0x3c8c1410	0.01709941
237	0xbcb7e444	-0.022447713
238	0x3d09cf30	0.033644855
239	0x3e06dbe8	0.13169825
240	0x3dbb5f7a	0.0914907
241	0xbd9d091e	-0.076677546
242	0xbd617855	-0.0550464
243	0xbd822eb0	-0.06356561
244	0xbca861f4	-0.02055452
245	0x3d43a79b	0.047767263
246	0xbd6ef10b	-0.058335345
247	0x3d94488e	0.07240401
248	0xbd39f670	-0.045401037
249	0xbd07c187	-0.033143546
250	0x3dcb11dd	0.099155165
251	0xbd527009	-0.051376376
252	0x3d961e17	0.07329958
253	0xbc24b16c	-0.010052066
254	0x3d8ee2b3	0.06976833
255	0xbd4ad94e	-0.049523644

fc3.bias f4 [10]
0	0xbc63b5d4	-0.013898332
1	0x3e157af9	0.14597692
2	0xbb7f1c59	-0.0038926809
3	0x3db02dc7	0.08602481
4	0x3dd31bcd	0.10308037
5	0xbceebb9c	-0.029142193
6	0x3d2e6dfd	0.04258536
7	0xbc120464	-0.00891218
8	0x3c491abb	0.012274439
9	0xbda34b08	-0.079732955
