kannada_mnist.pth (torch, 250195 bytes, 10 tensors)

conv1.weight f4 [6, 1, 5, 5]
0	0xbdbe7ace	-0.09300767
1	0xbe1a1063	-0.15045314
2	0xbbb52baa	-0.005528887
3	0x3c9d01d3	0.019165909
4	0xbe949eac	-0.29027307
5	0x3dbe81ab	0.09302076
6	0xbe6d5792	-0.23177937
7	0xbe20f0a9	-0.15716805
8	0x3d53e954	0.05173619
9	0xbdf36b22	-0.11885668
10	0xbcb0071a	-0.021487761
11	0xbe212f30	-0.15740657
12	0x3e14a1b5	0.14514811
13	0x3e5a09a6	0.21292743
14	0xbd6fe381	-0.058566574
15	0x3cb40a4e	0.02197757
16	0x3b183466	0.0023224591
17	0xbe2a1945	-0.16611202
18	0xbdb8dfac	-0.09027037
19	0x3dc5e510	0.09662831
20	0x3ebfd7f1	0.37469438
21	0x3ebf586a	0.37372142
22	0x3e9d4d45	0.30723014
23	0x3cc6b53a	0.024256337
24	0xbdc75544	-0.0973306
25	0xbec4ee2c	-0.3846296
26	0xbea45c07	-0.3210146
27	0xbcfb2dfd	-0.030661577
28	0xbe24460a	-0.16042343
29	0xbe2407d5	-0.16018613
30	0xbe80c045	-0.2514669
31	0xbe94707e	-0.28992075
32	0xbd129278	-0.035784215
33	0xbe17cc8f	-0.14824127
34	0x3d84fbcf	0.06493341
35	0xbdd8a034	-0.10577431
36	0xbed40950	-0.41413355
37	0x3a5880da	0.00082589465
38	0x3e8ecf55	0.27892557
39	0x3eb2c5e3	0.349166
40	0xbe7637b4	-0.24044687
41	0xbe7e96dd	-0.24862237
42	0x3ddb9d21	0.10723329
43	0x3f18e5b3	0.59725493
44	0x3e917a66	0.28413695
45	0x3dcc3c96	0.09972493
46	0xbda24257	-0.079228096
47	0x3ef00a29	0.46882752
48	0x3f10c3cc	0.5654876
49	0x3f0064ef	0.5015401
50	0xbe7c02f2	-0.24610499
51	0xbc34d27b	-0.011036511
52	0x3df21588	0.11820513
53	0x3c33fc91	0.0109855095
54	0xbdd8adae	-0.10580002
55	0xbe9df2fb	-0.30849442
56	0x3db6b7a7	0.08921748
57	0xbbb03a6b	-0.0053780577
58	0xbe5ef4be	-0.21773049
59	0xbe86dea1	-0.26341727
60	0xbe92af8e	-0.28649563
61	0x3dd71aa6	0.1050313
62	0xbe28f3f0	-0.16499305
63	0x3d859c8f	0.06524002
64	0xbccdc176	-0.025116663
65	0xbdc5582d	-0.09635959
66	0xbcb5bb61	-0.022184076
67	0x3e144f2c	0.14483327
68	0x3e986446	0.29764003
69	0x3df66cef	0.12032496
70	0x3a99789e	0.001170892
71	0xbda753af	-0.08170258
72	0x3e2ab302	0.16669849
73	0x3ee0f094	0.43933547
74	0x3e8f669f	0.2800798
75	0xbe6a86f8	-0.22903049
76	0x3de52262	0.111881986
77	0x3e74799c	0.23874515
78	0xbdec98f0	-0.11552608
79	0xbe1e0771	-0.15432526
80	0xbddd679c	-0.108107775
81	0x3e5d6b2f	0.21622919
82	0x3e3dd4ed	0.18538256
83	0xbddfdb2d	-0.10930476
84	0x3dc952d4	0.09830251
85	0x3be1172d	0.006869218
86	0xbe41a50b	-0.18910615
87	0xbd536105	-0.051606197
88	0x3e24339e	0.16035315
89	0x3e296d64	0.16545635
90	0xbe1e6f9a	-0.1547226
91	0xbc17c2de	-0.009262769
92	0xbe216bd2	-0.15763786
93	0xbe1db04c	-0.15399283
94	0x3e7bbcf8	0.24583805
95	0xbc9c0500	-0.019045353
96	0x3e2ee1bc	0.17078298
97	0xbe25a67a	-0.16176787
98	0xbe1cd4c2	-0.15315536
99	0x3e0cb1c3	0.13739686
100	0xbe904c4b	-0.28183207
101	0xbeaffacb	-0.34371027
102	0xbdee6386	-0.11640076
103	0xbedc3ffc	-0.43017566
104	0xbecab1b4	-0.39588702
105	0xbb9989b9	-0.0046856073
106	0xbe42e6ae	-0.1903331
107	0xbe97ec00	-0.2967224
108	0xbd2255db	-0.03963266
109	0xbe9b372e	-0.30315536
110	0x3e316d2c	0.17326802
111	0x3e11c975	0.14237006
112	0x3eab89ed	0.33503667
113	0x3c96fc48	0.018430844
114	0x3e911dc6	0.28343028
115	0x3ea928f5	0.3303906
116	0x3ef35e83	0.47533044
117	0x3eec10c9	0.46106556
118	0xbcbebb2d	-0.023282612
119	0x3e3bdcc0	0.18345928
120	0x3d5519e8	0.05202666
121	0x3e083c5e	0.13304278
122	0x3dbe2d74	0.09286013
123	0x3e0b94f4	0.1363104
124	0xbe639db6	-0.2222813
125	0x3decfdba	0.11571832
126	0x3d90cd4c	0.07070407
127	0x3deb0da7	0.11477213
128	0x3e36ea6c	0.17862862
129	0xbe9274fd	-0.2860488
130	0xbe46f5b4	-0.19429666
131	0xbdb703f6	-0.08936302
132	0x3e2bcb2b	0.16776721
133	0xbe54b7ad	-0.20773192
134	0x3d113192	0.035447665
135	0x3dd98ffa	0.106231645
136	0x3d4ff6c8	0.05077246
137	0x3e9b5360	0.30337048
138	0xbe7f3cc3	-0.24925523
139	0x3e05ff8c	0.13085765
140	0xba903205	-0.0011001235
141	0x3aaabd1f	0.0013026333
142	0x3e609ad2	0.2193406
143	0xbe2e6c66	-0.17033538
144	0x3dfb0f72	0.12258805
145	0x3da591d4	0.08084455
146	0xbe1e463d	-0.15456481
147	0x3e53662f	0.20644449
148	0xbe29614e	-0.16541025
149	0xbe6d7f07	-0.23192988

conv1.bias f4 [6]
0	0x3db04796	0.08607404
1	0x3ef56cd7	0.479346
2	0x3baf314d	0.0053464533
3	0xbceb7c69	-0.028745847
4	0x3e2efc47	0.17088424
5	0x3e1ee506	0.15517053

conv2.weight f4 [16, 6, 5, 5]
0	0x3ce727d1	0.028217228
1	0x3ced18e6	0.028942537
2	0xbd32869e	-0.043585412
3	0x3d23348d	0.03984504
4	0x3d4bef6c	0.049788877
5	0x3d27e69d	0.040991414
6	0xbcc7c5ed	-0.02438637
7	0xbb5879e3	-0.0033031635
8	0x3d1289f9	0.035776112
9	0x3ae65c45	0.0017575106
10	0xbcbf6b65	-0.02336664
11	0x3c2fc51e	0.010728149
12	0x3d66ce01	0.056348804
13	0x394d517d	0.0001958068
14	0xbc186f63	-0.0093039
15	0x3d5940ea	0.053040422
16	0x3d85872e	0.06519924
17	0xbd9932da	-0.07480402
18	0x3d19387a	0.037407376
19	0xbd0d8dfb	-0.03455923
20	0x3d90b18a	0.07065113
21	0x3c0f3aef	0.008742078
22	0xbb58e325	-0.0033094373
23	0xbdb50a6b	-0.08839878
24	0xbd7f7c1f	-0.06237423
25	0xbd69d8eb	-0.057091635
26	0x3d82c492	0.06385149
27	0x3c726e81	0.014796854
28	0x3c4da827	0.012552298
29	0x3d233cf2	0.039853044
30	0xbbff9fd5	-0.007801036
31	0x3cdaa331	0.026689144
32	0x3db6c464	0.08924177
33	0xbc95f876	-0.018306952
34	0x3d935622	0.07194163
35	0x3cb70285	0.022340069
36	0x3e0c3ede	0.13695857
37	0x3a5be838	0.00083887903
38	0x3d5e5ed9	0.054289673
39	0xbd58946e	-0.05287593
40	0x3c75f95f	0.015013068
41	0xbd74244e	-0.059604935
42	0xba97d5cd	-0.0011584103
43	0xbdae3730	-0.0850662
44	0xbda36a4e	-0.079792604
45	0xbd1123c2	-0.035434492
46	0xbd5a0794	-0.053229883
47	0xbd9dcea2	-0.07705428
48	0xbd15c797	-0.036567297
49	0xbd3067d7	-0.04306778
50	0xbb8c4076	-0.0042801453
51	0x3d58fea5	0.052977223
52	0x3d7aed94	0.06126173
53	0x3d923d55	0.071406044
54	0xbbc066ab	-0.005871614
55	0xbd79faf7	-0.061030354
56	0x3d8758cc	0.066087335
57	0xbd257b53	-0.040400814
58	0x3d5d2cde	0.053997867
59	0xbd0eaaa7	-0.034830716
60	0x3c6907ad	0.014223021
61	0x3dbb75c2	0.0915332
62	0x3d2a8d2e	0.041638546
63	0x3c58dbcb	0.0132359965
64	0xbd890ee8	-0.06692296
65	0x3d38717a	0.045030095
66	0x3d583553	0.05278523
67	0xbc946881	-0.018116238
68	0x3b66b539	0.0035203232
69	0xbd83e923	-0.06440952
70	0x3d698584	0.057012096
71	0xbc691c11	-0.014227883
72	0xbd6029e7	-0.05472746
73	0xbdb2a5f0	-0.08723056
74	0x3d50c83a	0.0509722
75	0xbbda3600	-0.0066592693
76	0x3ca35904	0.019939907
77	0x3cfb4aa0	0.030675232
78	0x3bae44b7	0.00531825
79	0x3cf78101	0.030212881
80	0x3c086599	0.008325004
81	0xbd1e2564	-0.038609877
82	0x3d545e0e	0.05184751
83	0xbd877334	-0.0661377
84	0x3cb459c9	0.02201547
85	0x3ce80e54	0.028327145
86	0xbd890ea8	-0.066922486
87	0xbd33e825	-0.043922562
88	0x3d5428ea	0.05179683
89	0x3d455587	0.04817727
90	0xbd36d926	-0.044640683
91	0x3cddc599	0.027071761
92	0xbd7bd560	-0.061482787
93	0xbc5f28ac	-0.013620537
94	0x3ca7fd6c	0.020506583
95	0xbceca2e1	-0.02888626
96	0xbbdbd6c2	-0.0067089507
97	0xbd8ffaed	-0.07030282
98	0xbcbc51a7	-0.022988154
99	0xbd59e833	-0.053199958
100	0x3caeb091	0.021324428
101	0xbd03f25d	-0.032213558
102	0x3cf040f9	0.029327856
103	0xbc8fdbf1	-0.01756093
104	0xbd4197f8	-0.04726407
105	0x3d4176d9	0.047232483
106	0xbc5ded60	-0.013545364
107	0x3dae7e84	0.08520225
108	0xbd619a46	-0.055078767
109	0xbc0ed595	-0.008717914
110	0x3d64cd41	0.055859808
111	0x3b27a31f	0.0025579405
112	0x3df80319	0.12109966
113	0x3b7288d9	0.0037007837
114	0x3d0873ce	0.033313565
115	0x3d36debb	0.044646006
116	0x3df5621b	0.11981603
117	0x3d84aca0	0.06478238
118	0xbd9a9188	-0.07547289
119	0xbcbc522d	-0.022988403
120	0x3d851301	0.06497765
121	0x3dd9dce2	0.10637833
122	0xbd567320	-0.052355886
123	0xbd2ed932	-0.042687602
124	0xbd355207	-0.04426768
125	0xbba283db	-0.004959566
126	0xbd24d4ed	-0.040242124
127	0x3d4c6866	0.04990425
128	0xbcecadf8	-0.028891549
129	0xbd09db18	-0.03365621
130	0x3d93d976	0.07219212
131	0x3d65dfbd	0.056121577
132	0x3bd6302b	0.006536504
133	0x3d5cb248	0.05388096
134	0xbcc95a1a	-0.024579097
135	0x3db0a041	0.08624316
136	0xbd7d9f7a	-0.061919667
137	0x3cd47a33	0.025937175
138	0xbcd654d4	-0.026163496
139	0xbdac9af3	-0.08427992
140	0x3dc7b3ed	0.09751115
141	0x3d166cdf	0.03672492
142	0xbcd57edd	-0.02606147
143	0xbcf4610e	-0.029831436
144	0x3bf25ecd	0.007396555
145	0x3dba47b7	0.0909571
146	0xbd6e20a7	-0.05813661
147	0xbd174bf6	-0.036937676
148	0xbda8f10b	-0.082491
149	0x3cb59b0b	0.022168657
150	0x3d61128d	0.054949332
151	0xbd0a32a9	-0.03373972
152	0x3c5d87b5	0.013521125
153	0x3c80b5db	0.015711715
154	0xbcbd8354	-0.023133911
155	0x3d34a3aa	0.044101395
156	0xbd6849a9	-0.056710873
157	0x3deba025	0.115051545
158	0x3b25dda0	0.00253091
159	0x3d396aa7	0.045267727
160	0xbd16ca8b	-0.036814254
161	0x3c1c3cb4	0.009535957
162	0x3d5e94f0	0.054341257
163	0xbc3cbf5f	-0.011520236
164	0x3c0cc9be	0.008593021
165	0x3d885f1a	0.06658764
166	0x3da3f938	0.08006519
167	0xbdb3d4f0	-0.08780849
168	0xbd8fdc15	-0.07024399
169	0xbc7d0793	-0.0154437
170	0xbceacc14	-0.028661765
171	0x3d3f6272	0.046724744
172	0x3d0e254c	0.034703538
173	0xbdc9606d	-0.09832845
174	0xbd8790f9	-0.06619448
175	0xbd4e39b1	-0.050347988
176	0x3dbe7088	0.092988074
177	0x3e0e048e	0.13868925
178	0x3ca0ebfc	0.019643776
179	0x3c2c15d8	0.010503255
180	0x3c8e3093	0.017357146
181	0x3d2bd3db	0.041950088
182	0x3e0334b6	0.12813076
183	0xbd1885c5	-0.037236948
184	0xbde00818	-0.10939044
185	0x3dc3e99a	0.0956604
186	0xbd02de0f	-0.031950053
187	0x3d0706c8	0.03296545
188	0xbc5fd026	-0.013660466
189	0x3b20a2cc	0.0024511097
190	0x3c3f4b54	0.0116756745
191	0x3cd33219	0.025780724
192	0xbdf6c774	-0.120497614
193	0x3d6253d3	0.055255722
194	0xbb6dda79	-0.003629355
195	0x3ce15d74	0.027510382
196	0xbd3aa563	-0.04556788
197	0xbddc3250	-0.10751784
198	0xb8ddb7fb	-0.0001057237
199	0x3e0250a6	0.12726077
200	0x3d2926a4	0.041296616
201	0x3d567894	0.052361086
202	0x3d1738bf	0.03691935
203	0xbc6e667d	-0.014550802
204	0xbccbce54	-0.024878658
205	0x3d82d0f4	0.06387511
206	0xbcf73e74	-0.030181147
207	0xbbce8c75	-0.006303365
208	0x3d08a546	0.033360742
209	0xbd1f9094	-0.03895624
210	0xbbe6a5e7	-0.00703882
211	0xbd35a381	-0.044345383
212	0x3c8194d9	0.015818046
213	0xbaeb74d3	-0.0017963893
214	0xbd82fda9	-0.06396038
215	0xbd16ca66	-0.036814116
216	0xbd6edcd1	-0.058316056
217	0xbd93a68e	-0.07209502
218	0xbd85907a	-0.06521697
219	0x3da3e8b8	0.08003372
220	0x3d334d3e	0.043774836
221	0xbd108a0f	-0.035287913
222	0x3c5afd90	0.013366118
223	0xbda003dd	-0.07813237
224	0xbccc5227	-0.024941517
225	0xbda45764	-0.08024481
226	0xba875323	-0.0010324459
227	0x3da04b67	0.07826882
228	0xbd69518f	-0.056962546
229	0xbd17f3de	-0.037097804
230	0x3d71eeff	0.059065815
231	0xbd6b3314	-0.05742176
232	0x3daf7949	0.08568055
233	0x3d228f5b	0.039687496
234	0x3ba5e424	0.005062597
235	0x3d777c84	0.06042148
236	0x3d31248d	0.04324775
237	0x3dabceb4	0.08389035
238	0x3ce13192	0.027489457
239	0x3d356e02	0.044294365
240	0xbd97f3d5	-0.07419554
241	0xbd9fb6d9	-0.07798547
242	0x3d727a55	0.059198696
243	0xbada241f	-0.0016642845
244	0x3d653592	0.05595929
245	0x3c5fb025	0.013652836
246	0x3c4484fe	0.011994598
247	0xbc2dbbfe	-0.010603903
248	0x3cd7641b	0.026292851
249	0xbd9e025a	-0.07715292
250	0xbc2b185a	-0.010442818
251	0xbc5610e9	-0.013065555
252	0xbd724e05	-0.059156436
253	0xbd403dd7	-0.046933975
254	0xbda9912e	-0.08279644
255	0xbd6cb148	-0.057786256

conv2.bias f4 [16]
0	0x3d8347c6	0.06410174
1	0x3d231fa1	0.039825086
2	0xbc49889d	-0.012300638
3	0x3d7340b7	0.05938789
4	0x3ca73d73	0.020415043
5	0x3d2cbc30	0.042171657
6	0xbd17726d	-0.03697436
7	0x3d10b59f	0.035329457
8	0x3db0abed	0.08626542
9	0x3c90c61c	0.01767259
10	0xbd7d2e02	-0.061811455
11	0x3df06a53	0.1173903
12	0x3dadeb36	0.084921286
13	0x3d300bff	0.04298019
14	0xbc9dfe81	-0.019286396
15	0x3cc87e60	0.024474323

fc1.weight f4 [120, 400]
0	0x3d237e8c	0.039915606
1	0x3d1f2761	0.038855914
2	0xbc3613e4	-0.011113141
3	0x3c18e8b8	0.009332828
4	0xbce54df1	-0.027991267
5	0x3cc67093	0.024223601
6	0x3d207b55	0.03918012
7	0xbd402c23	-0.046917092
8	0xbc2276ea	-0.009916047
9	0x3c9ca1fd	0.01912021
10	0xbbeace00	-0.0071656704
11	0xbc149bd9	-0.00907036
12	0xbc3dfcea	-0.011595944
13	0x3d1f242c	0.038852856
14	0x3abe7183	0.0014529679
15	0x3d0ac99c	0.033883676
16	0x3d269d10	0.04067713
17	0x3d2f1450	0.04274398
18	0xbccea164	-0.025223441
19	0xbd32bcb1	-0.04363698
20	0xbd0f9bf6	-0.035060845
21	0xbd43187c	-0.047630772
22	0x3d169025	0.03675856
23	0x3d2e8e9e	0.04261648
24	0x3d00f238	0.031480998
25	0xbb201081	-0.00244239
26	0xbca9b6ab	-0.020716986
27	0xbd20c4b4	-0.03925009
28	0xbcf2be48	-0.029631749
29	0xbd4372a1	-0.04771674
30	0xbc15d0d6	-0.009144029
31	0x3d1887b0	0.037238777
32	0x3a3c92e4	0.0007193519
33	0xbcd8d5cb	-0.026469132
34	0xbd49bb13	-0.049250674
35	0x3d200fbc	0.039077505
36	0xbb943b2d	-0.004523656
37	0xbbb1ba93	-0.0054238527
38	0xbd42a131	-0.047517005
39	0xbd23918e	-0.039933734
40	0x3cc68f55	0.024238268
41	0x3d40755b	0.04698692
42	0xbc28a21c	-0.010292556
43	0xbd04e372	-0.03244347
44	0xbc0c812d	-0.00857572
45	0x3d0002c2	0.03125263
46	0xbcbe5128	-0.023232058
47	0xbb58c957	-0.0033078992
48	0xbcdc2d2e	-0.026877012
49	0xbc8fbe4b	-0.017546793
50	0x3d3d296e	0.04618209
51	0xbd35582d	-0.044273544
52	0xbb99b87b	-0.0046911812
53	0xbc899dfa	-0.016798962
54	0x3ca27580	0.019831419
55	0xbcaad40b	-0.020853063
56	0x3c5c266e	0.013436897
57	0xbd12b4c4	-0.035816923
58	0xbd44bf6f	-0.048034128
59	0xbd373668	-0.04472962
60	0x3c7843b0	0.015152857
61	0xbc70114c	-0.014652561
62	0x3ba7c6d5	0.005120138
63	0x3cf0efd9	0.029411243
64	0xbb9038d5	-0.004401306
65	0xbcbb7439	-0.022882568
66	0xbd47599a	-0.048669435
67	0x3bc4a9ec	0.0060017016
68	0xbcb21a3b	-0.021741023
69	0x3ca59118	0.020210788
70	0x3bd19ef7	0.006397124
71	0x3a9970fc	0.0011706646
72	0xbc3d7540	-0.011563599
73	0x3b6a46f5	0.003574786
74	0xbd3cd676	-0.046102963
75	0x3b8d536d	0.0043129236
76	0xbccc2f41	-0.024924876
77	0x3a056372	0.0005088366
78	0xbcc0254d	-0.023455286
79	0xbd1fd674	-0.039022878
80	0x3d280995	0.041024763
81	0xbc826066	-0.015915107
82	0x3d07be62	0.033140548
83	0xbcef7a4c	-0.02923312
84	0xbc690665	-0.014222716
85	0xbd042af6	-0.032267533
86	0xbd154bd7	-0.03644928
87	0xbc1a199f	-0.009405523
88	0x3d1a231f	0.03763115
89	0xbcf8f040	-0.030387998
90	0x3c919577	0.017771466
91	0xbce8f0c1	-0.028435113
92	0x3d263e58	0.0405868
93	0x3ce27bbc	0.027646892
94	0x3bf6ce1d	0.007531895
95	0xbd1a066e	-0.037603788
96	0xbcedff03	-0.029052263
97	0xbcc25009	-0.023719804
98	0xbd352012	-0.044220038
99	0xbd124d80	-0.03571844
100	0xbcd2b82d	-0.025722587
101	0xbb5ed783	-0.0034002967
102	0x3d1f18b2	0.03884191
103	0xbcafd60e	-0.021464374
104	0xbd0a72e1	-0.033800963
105	0xbcd59fc3	-0.026077157
106	0xbd1041ef	-0.03521913
107	0xbc305139	-0.0107615525
108	0xbd427c7f	-0.04748201
109	0xbc29422e	-0.01033072
110	0xbbfaae61	-0.007650182
111	0x3b98a8ad	0.0046587796
112	0xbb8f22e8	-0.004368175
113	0x3d2b55fd	0.04183005
114	0xbd31a573	-0.043370675
115	0x3c7d7ed9	0.015472137
116	0x3c388164	0.011261318
117	0x3c289b1c	0.010290887
118	0x3c872da6	0.016501259
119	0x3c53d23d	0.012928543
120	0xbc4698ad	-0.012121362
121	0x3adca920	0.0016835071
122	0x3d1be20f	0.038057383
123	0x3b3ee9bb	0.0029131013
124	0x3bba18d1	0.005679228
125	0x3cf0effc	0.029411308
126	0x3cc7dde4	0.024397798
127	0x3bd4c6a6	0.0064934073
128	0xbc2e907a	-0.010654563
129	0xbcb1873c	-0.02167093
130	0xbc99d8f9	-0.018780218
131	0x3c8fc490	0.017549783
132	0xbd13ea03	-0.036111843
133	0xbd533b18	-0.051570028
134	0x3c8f58ed	0.017498458
135	0xbd0b4e1a	-0.03401003
136	0x3c474429	0.012162247
137	0x3c5e564a	0.013570378
138	0x3c11728a	0.008877406
139	0x3cb78a69	0.022404866
140	0xbc94d606	-0.01816846
141	0x3d3da5b4	0.046300605
142	0xbcb735d5	-0.022364536
143	0xbc50325e	-0.012707321
144	0x3d33a901	0.043862347
145	0xbb98e28f	-0.0046656798
146	0x3a586175	0.00082542683
147	0x3d0984a0	0.033573747
148	0x3ccb735e	0.024835285
149	0xbcdac7e0	-0.026706636
150	0x3c7dc025	0.015487705
151	0x3c3801b0	0.011230871
152	0x3cdeec85	0.02721239
153	0x3d31d9ff	0.043420788
154	0xbc5823e1	-0.013192148
155	0x3bb93d8a	0.005653088
156	0x3d01e568	0.03171292
157	0x3d3402e1	0.043948058
158	0x3d3b11c6	0.045671247
159	0xbd06a50c	-0.032872245
160	0xbd23896a	-0.03992597
161	0xbc1e5bef	-0.009665473
162	0xba300ed7	-0.00067160785
163	0xbc44324c	-0.011974882
164	0xbd0e8451	-0.034794156
165	0x3c1bcd51	0.0095094
166	0xbca2d00d	-0.019874597
167	0x3cb1098e	0.021611001
168	0x3c90edbe	0.01769149
169	0xbd2961b4	-0.041352943
170	0xbc9ee384	-0.019395597
171	0xbd2fb42a	-0.042896427
172	0x3b876264	0.004131602
173	0xbd2c0a7a	-0.04200218
174	0x3ca364ed	0.019945586
175	0xbd38e16b	-0.04513685
176	0xbd059382	-0.032611378
177	0xbc1ab80a	-0.009443292
178	0xbd0068cb	-0.03134994
179	0x3b70d238	0.0036746394
180	0xbd07b198	-0.03312835
181	0xbb923b2f	-0.0044626216
182	0xbd38de68	-0.045133978
183	0xbd097358	-0.033557266
184	0x3d03cc89	0.03217748
185	0xbce9fbbb	-0.028562417
186	0x3c7d9a13	0.015478629
187	0x3d01e746	0.0317147
188	0x3d270750	0.040778458
189	0x3b3b794f	0.002860624
190	0xbcccc959	-0.024998354
191	0x3d2a9dbf	0.041654345
192	0x3d17aba9	0.037028942
193	0xbce3a874	-0.027790286
194	0xbcc37f4b	-0.023864409
195	0xbcd120c1	-0.025528314
196	0x3cb32824	0.021869726
197	0xbd05eedc	-0.032698497
198	0xbd3e063a	-0.046392657
199	0xbc4854ed	-0.012227279
200	0x3ce432be	0.027856227
201	0x3c2b57db	0.010457958
202	0x3d0f3624	0.034963742
203	0x3caeca58	0.02133672
204	0x3cedce14	0.02902893
205	0xbd130493	-0.035893034
206	0x3cbdd461	0.02317256
207	0xbd12589b	-0.035729032
208	0xbb9921be	-0.004673212
209	0x3cf694c4	0.030100234
210	0x3c999471	0.01874754
211	0xbcf4706a	-0.02983876
212	0x3d350a68	0.044199377
213	0xbc8584c5	-0.016298661
214	0xbc7d55ea	-0.015462378
215	0xbbc5f47b	-0.0060411072
216	0xbbd0418e	-0.006355471
217	0xbacc1fb1	-0.001557341
218	0xbc40cc8c	-0.011767518
219	0xbd1df424	-0.03856291
220	0x3d2ffb8e	0.04296451
221	0x3cd1d0ec	0.025612317
222	0x3d402e70	0.046919286
223	0xbc676b44	-0.014124695
224	0x3d0e446d	0.034733225
225	0xbc11c243	-0.008896413
226	0xbca90506	-0.020632278
227	0xbc8079f3	-0.01568315
228	0xbb5ed757	-0.0034002864
229	0xbad37559	-0.0016132995
230	0x3d313d3b	0.043271285
231	0xbd1139f2	-0.03545565
232	0x3c7ebddd	0.015548197
233	0xbca3b199	-0.019982146
234	0xbd2330e3	-0.039841544
235	0xbc5205ad	-0.012818736
236	0xbbee3b3c	-0.007270245
237	0xbc9b1caa	-0.018934567
238	0x3d33050e	0.043705992
239	0x3d118a8f	0.03553253
240	0x3c947e37	0.01812659
241	0xbbb6f999	-0.0055839536
242	0xbcb2b8b4	-0.021816589
243	0x3a76800b	0.0009403235
244	0x3c64a36b	0.0139549775
245	0x3d3b1000	0.045669556
246	0xba416911	-0.0007378022
247	0xbd053e77	-0.032530274
248	0xbd25da9a	-0.040491678
249	0xbd422089	-0.04739431
250	0xbb8840dc	-0.0041581225
251	0xbc6f0c85	-0.014590387
252	0xba25b987	-0.0006321896
253	0x3bdb4cf7	0.0066925245
254	0xbaf737a0	-0.0018861182
255	0xbcd5a466	-0.026079368

fc1.bias f4 [120]
0	0xbd3e2ebb	-0.046431284
1	0xbd495ec6	-0.04916265
2	0x3d0de4a5	0.03464188
3	0xbcaa5a01	-0.02079487
4	0x3d3a64ee	0.04550641
5	0x3cad18de	0.021130022
6	0x3b6de381	0.0036298933
7	0x3c85a602	0.01631451
8	0x3d45fab0	0.048334777
9	0xbd1e12f7	-0.038592305
10	0x3d1c0ed0	0.038100064
11	0xbd20369a	-0.039114572
12	0x3d526a7b	0.05137108
13	0xbc799144	-0.015232388
14	0xbd32d0b0	-0.04365605
15	0x3c899acc	0.016797446
16	0x3cbaff94	0.022826947
17	0x3d18a12c	0.03726308
18	0xbb49f4f4	-0.003081617
19	0x3d0c5144	0.03425719
20	0xbc4bec7c	-0.012446519
21	0xbd327bb4	-0.043575004
22	0x3d0ff40e	0.035144858
23	0x3d2381fb	0.03991888
24	0xbd2f3a26	-0.042780064
25	0x3d34e315	0.044161875
26	0x3d13c20f	0.03607374
27	0xbd493fb6	-0.049133025
28	0x3c417360	0.011807293
29	0x3cad8e8d	0.021186138
30	0xbc46ed58	-0.012141548
31	0x3d1addb3	0.037809085
32	0x3c963a64	0.01833839
33	0x3ce4895e	0.027897533
34	0x3d400b16	0.046885572
35	0x3d189a8e	0.03725677
36	0x3d47f179	0.04881427
37	0xb98a0be3	-0.00026330267
38	0x3d5ae49e	0.053440683
39	0x3c0755ed	0.008260232
40	0xbcf27f18	-0.029601619
41	0xbd057314	-0.03258045
42	0xbd44caa0	-0.0480448
43	0x3bf9a3f9	0.007618424
44	0x3d2a87bd	0.041633356
45	0x3c0fde69	0.008781054
46	0xbc988dc7	-0.018622292
47	0x3bb8441c	0.0056233536
48	0x3cef22d3	0.02919141
49	0xbbf2e976	-0.0074130846
50	0xbb9e256f	-0.00482624
51	0xbbb1f1f5	-0.005430455
52	0x3d35ee13	0.0444165
53	0x3d3f95bf	0.04677367
54	0xbb46f7b0	-0.0030360036
55	0xbd27f096	-0.041000925
56	0xbd318912	-0.04334361
57	0xbd0ae31c	-0.033907995
58	0x3d0657f0	0.032798707
59	0x3ca0208b	0.019546768
60	0xbd0b35ea	-0.033986963
61	0xbc902e7c	-0.01760029
62	0x3d72ae6b	0.05924837
63	0x3d4f45da	0.050603725
64	0xbd4221d7	-0.047395553
65	0x3bf79e12	0.0075566852
66	0xbc20566e	-0.009786231
67	0x3d45bd12	0.048276015
68	0x3d560924	0.05225481
69	0x3d24b1a2	0.040208466
70	0x3bf1bcbd	0.0073772357
71	0x3ce916db	0.028453281
72	0xbd3d2ad4	-0.046183422
73	0x3d28ebaf	0.04124039
74	0x3d86ef3e	0.065886006
75	0x3b1106fd	0.002212941
76	0x3ca1b03c	0.019737355
77	0x3d572cbf	0.052532908
78	0xbd3f1f81	-0.046660904
79	0xbc988f60	-0.018623054
80	0xbd1cd9b3	-0.03829355
81	0xbd2b5998	-0.04183349
82	0x3c34af16	0.011028072
83	0xbcfe6e97	-0.031058593
84	0xbcd0928b	-0.025460502
85	0x3c0b4220	0.008499652
86	0xbcd2923c	-0.025704496
87	0xbcc32793	-0.023822581
88	0x3b740089	0.0037231764
89	0x3d3c1427	0.045917656
90	0x3cafe9d4	0.021473803
91	0xbc2ae250	-0.010429934
92	0xbd134129	-0.035950813
93	0x3d23749f	0.03990614
94	0x3c39e426	0.011345899
95	0xbbcbc1f2	-0.0062181884
96	0x3c463611	0.012097851
97	0xbd2bfc4e	-0.041988663
98	0x3d25f7c1	0.04051948
99	0xbd3cad8b	-0.04606394
100	0x3d1ee843	0.03879572
101	0x3d7da8f1	0.061928693
102	0x3b9f0af9	0.004853603
103	0xbd0f0340	-0.03491521
104	0xbd2acd0a	-0.041699447
105	0xbbbc0a4b	-0.0057385317
106	0x3d368f90	0.044570506
107	0x3cd95b21	0.026532711
108	0x3cb5142d	0.022104347
109	0x3cf289d5	0.029606739
110	0xbd389294	-0.045061663
111	0xbb5f7ce8	-0.003410155
112	0xbbb6743d	-0.005568056
113	0x3cf52559	0.029925035
114	0x3cb88329	0.02252348
115	0xbcd96da6	-0.026541542
116	0x3d3120b1	0.043244068
117	0x3c646e1c	0.013942268
118	0xbc178532	-0.009248065
119	0xbd1e91f2	-0.038713403

fc2.weight f4 [84, 120]
0	0xbdb8a0d0	-0.090150476
1	0x3ac61d2a	0.0015114893
2	0xbd3ead9d	-0.04655229
3	0xbd31b712	-0.04338748
4	0xbd08c166	-0.033387564
5	0xbcd1405c	-0.025543384
6	0x3d9179f5	0.071033396
7	0x3d030af8	0.031992882
8	0x3c370e89	0.011172899
9	0x3b8e9a33	0.004351878
10	0x3d6d0cd4	0.057873562
11	0xbda69f05	-0.08135799
12	0x3d97f966	0.07420616
13	0x3d89487b	0.06703278
14	0x3d687423	0.05675138
15	0x3b202c15	0.0024440337
16	0x3dc792d0	0.09744799
17	0x3d84f0c3	0.06491234
18	0xbdac6f08	-0.08419615
19	0x3c44a2ca	0.012001703
20	0x3cfee026	0.031112742
21	0x3d71a4f6	0.05899521
22	0x3afd1df7	0.0019311298
23	0xbca074e8	-0.019586995
24	0x3d66a410	0.056308806
25	0x3d2284ef	0.039677557
26	0x3dbe8c5d	0.09304116
27	0x3d433e43	0.0476668
28	0xbd75b804	-0.059989944
29	0x3bfef280	0.007780373
30	0xbd8ff7dd	-0.07029698
31	0x3bad610a	0.005291109
32	0xbc2bc17c	-0.010483142
33	0x3bb0b3e0	0.0053925365
34	0xbd6c000e	-0.05761724
35	0x3d067b6f	0.03283256
36	0xba9eef1d	-0.0012125705
37	0x3cf25435	0.029581169
38	0xbd3743c1	-0.04474235
39	0xbd855eeb	-0.06512245
40	0xbd7d1572	-0.06178803
41	0xbda6aaab	-0.08138021
42	0xbda9b38a	-0.082861975
43	0xbd4a4a76	-0.049387418
44	0xbd734078	-0.059387654
45	0x3da13831	0.07872046
46	0x3d9a8db4	0.07546559
47	0xbcd03028	-0.025413588
48	0xbdafd3fb	-0.08585354
49	0x3d3f3135	0.046677787
50	0x394ebe98	0.00019716693
51	0x3ce09449	0.027414458
52	0x3da87e2e	0.08227192
53	0xbd8d9262	-0.06912686
54	0x3d68d72b	0.056845825
55	0x3c8e48ef	0.017368762
56	0xbd590e0b	-0.052991908
57	0x3caee36e	0.021348681
58	0xbd6a1c92	-0.057156153
59	0xbd7354ba	-0.059406973
60	0xbcc5cfaf	-0.024146883
61	0xbd95abe2	-0.07308175
62	0xbd271108	-0.040787727
63	0x3d5beade	0.053690784
64	0xbbdf5559	-0.006815594
65	0x3d389c6a	0.045071043
66	0x3d96d8cf	0.07365572
67	0xbcf44e67	-0.029822541
68	0xbdbd4477	-0.09241574
69	0xbda66b1d	-0.08125899
70	0xbcd6c018	-0.026214644
71	0xbd98497c	-0.07435891
72	0xbd3aec19	-0.045635317
73	0xbcdd36f4	-0.027003743
74	0x3ca1bb35	0.019742588
75	0xbd4ec36e	-0.050479345
76	0xbd9f9c11	-0.07793439
77	0x3d3acd4f	0.045605954
78	0xbd6a175b	-0.05715118
79	0x3d855e6f	0.065121524
80	0x3d104924	0.035226002
81	0x3d87d20a	0.06631859
82	0x3c78c7e9	0.015184381
83	0x3c34c9c9	0.011034437
84	0xbd7d7bdf	-0.06188571
85	0x3d62926e	0.055315427
86	0x3c23f454	0.010006983
87	0x3db719ad	0.08940444
88	0x3d2cb873	0.042168092
89	0xbd784e0d	-0.06062131
90	0x3da75fd9	0.08172578
91	0x3d22d14b	0.03975038
92	0xbd719b00	-0.05898571
93	0xbcf39694	-0.029734887
94	0x3daf3a80	0.0855608
95	0xbce085e0	-0.027407587
96	0x3d3672ba	0.044543006
97	0xbad99b8c	-0.0016602143
98	0xbd2b5d96	-0.041837297
99	0xbd8fbe0d	-0.07018671
100	0x3cd2e5a6	0.02574427
101	0x3d7d6e2d	0.06187265
102	0x3c02b9ca	0.007978866
103	0x3d882f4f	0.066496484
104	0x3d045d73	0.032315683
105	0xbd328262	-0.043581374
106	0x3da013b8	0.07816261
107	0x3d84d6c5	0.064862765
108	0xbd8eebf2	-0.06978597
109	0x3d0924dd	0.03348242
110	0xbd22279a	-0.03958855
111	0x3d3b87cc	0.045783803
112	0x3d9c6c9e	0.076379046
113	0xbdd10120	-0.10205293
114	0xbcb1490e	-0.02164128
115	0xbdfab54e	-0.122416124
116	0xbdb74c28	-0.089500725
117	0xbdae7e87	-0.08520227
118	0x3d0893cd	0.03334408
119	0x3d238aee	0.039927416
120	0x3c9f4aca	0.019444842
121	0xbd2becb6	-0.041973792
122	0xbd7c2767	-0.061561015
123	0x3d6c108c	0.057632968
124	0x3c82833b	0.015931716
125	0xbd98ae1a	-0.07455082
126	0x3db3d058	0.08779973
127	0xbc9460bc	-0.018112533
128	0x3d0c4376	0.034244023
129	0xbd3a3014	-0.045456007
130	0xbbeac489	-0.007164542
131	0x3ce7f021	0.028312745
132	0x3d424a82	0.047434337
133	0x3d8716af	0.065961234
134	0xbda0fee3	-0.07861116
135	0xbcae666c	-0.021289073
136	0x3d36ed94	0.044660166
137	0x3d94b61a	0.072612956
138	0x3c69e2aa	0.014275232
139	0x3d1f5e13	0.038908076
140	0x3d5053b2	0.050861068
141	0xbd9e54cd	-0.07731018
142	0x3d1c66aa	0.038183846
143	0x39af111f	0.00033391357
144	0x3db417b0	0.087935805
145	0x3ba58f20	0.005052462
146	0x3cf4eb48	0.029897347
147	0xbd145d88	-0.03622201
148	0xbd88630c	-0.06659517
149	0xbdabed2d	-0.08394847
150	0xbd76bd19	-0.06023893
151	0x3b9dcef1	0.004815929
152	0xbd8b788e	-0.06810103
153	0x3d22019c	0.039552316
154	0x3d496fd7	0.049178924
155	0x3db5ae3d	0.08871124
156	0x3c3fdc23	0.0117101995
157	0xbbf55839	-0.0074873236
158	0x3d8c3dd9	0.06847734
159	0xbdafc3cf	-0.085822694
160	0x3dbd7a4b	0.09251841
161	0xbc911e9d	-0.017714793
162	0xbda49010	-0.0803529
163	0xbcd88272	-0.026429389
164	0xbcbaa9dc	-0.022786073
165	0x3d922ad0	0.07137072
166	0x3ac73ac9	0.0015200014
167	0x3dbfecf5	0.09371368
168	0xbca07b42	-0.019590024
169	0xbd41c442	-0.047306307
170	0x3d87b66f	0.06626593
171	0x3c28f13c	0.010311421
172	0xbd0374a2	-0.03209365
173	0x3d01d037	0.03169271
174	0xbd869c16	-0.0657274
175	0xbda74c88	-0.08168894
176	0x3b0f5d09	0.0021875522
177	0x3d57607e	0.052582256
178	0x3db5c206	0.08874898
179	0xbda02124	-0.07818821
180	0x3d6c10ce	0.057633214
181	0xbdac43ec	-0.084113926
182	0xbd1769d4	-0.03696616
183	0x3d0616a0	0.03273642
184	0xbbc729d7	-0.0060779857
185	0x3cb937cc	0.022609614
186	0x3d3ef0a0	0.046616197
187	0xbd09b0a3	-0.03361572
188	0x3d14a61d	0.03629123
189	0xbdbee850	-0.09321654
190	0x3cede944	0.029041894
191	0xbc98623a	-0.018601526
192	0xbd9b035b	-0.075689994
193	0xbdada22a	-0.08478196
194	0x3d1a8699	0.03772602
195	0xbdb44b2e	-0.08803402
196	0xbcb2183f	-0.021740077
197	0xba9aa780	-0.0011799186
198	0xbd63ce9c	-0.05561696
199	0x3c1b1bfe	0.009467123
200	0x3d1e7f2f	0.03869551
201	0x3dab90b7	0.083772115
202	0x3d3d9937	0.046288695
203	0xbce1a4bd	-0.027544374
204	0xbd352996	-0.044229113
205	0x3d652cf3	0.05595107
206	0xbcc6d59f	-0.024271784
207	0xbbe8c2a1	-0.0071032797
208	0xb98985bf	-0.00026230325
209	0xbd20efa4	-0.03929104
210	0x3d4f6ec6	0.05064275
211	0x3a391570	0.00070603844
212	0xbd1d2a45	-0.03837039
213	0xbd504b24	-0.05085291
214	0xbdb54a09	-0.08852012
215	0xbd65881e	-0.056038015
216	0xbc0a3820	-0.008436233
217	0x3daa5d8d	0.08318625
218	0xbdb9d1fc	-0.090732545
219	0xbd16307c	-0.036667332
220	0xbda395f6	-0.07987587
221	0xbd980ecf	-0.074246995
222	0x3d411788	0.04714158
223	0x3d925f51	0.071470864
224	0x3d285568	0.041097075
225	0x3da35007	0.079742484
226	0xbd9c5592	-0.07633509
227	0x3ce93673	0.028468346
228	0x3d813bdd	0.06310246
229	0x3c9cc93a	0.019138921
230	0x3b65ab88	0.0035044868
231	0x3cadaac1	0.021199586
232	0xbd0f88f7	-0.03504273
233	0x3bc3f942	0.0059806416
234	0x3dad8108	0.084718764
235	0x3cf0e511	0.029406102
236	0xbd4a2009	-0.049346957
237	0x3ba01f55	0.0048865476
238	0x3d18916a	0.037248053
239	0x3d9871d1	0.07443584
240	0x3d4afe78	0.049559087
241	0x3d0d99c5	0.034570474
242	0x3d9d77fa	0.07688899
243	0x3d196982	0.037454136
244	0x3dd559aa	0.10417493
245	0x3dabde15	0.08391968
246	0xbd9a37bb	-0.07530161
247	0xbd88f32f	-0.066870086
248	0x3d421385	0.047381897
249	0x3d7f0fb6	0.062270842
250	0xbdfc506d	-0.123200275
251	0xbbe00bbd	-0.006837337
252	0xbd8763c1	-0.066108234
253	0xbd47f010	-0.048812926
254	0x3b87562e	0.0041301465
255	0x3dafc5ae	0.08582626

fc2.bias f4 [84]
0	0x3db443c3	0.08801987
1	0x3d4fb6f4	0.050711587
2	0xbd2f56fe	-0.04280757
3	0x3d9727b2	0.07380618
4	0xbd227ff1	-0.039672796
5	0xbd853399	-0.06503982
6	0xbb864e0e	-0.0040986603
7	0xbd951fab	-0.07281431
8	0xbd4393a4	-0.047748223
9	0xbda069a8	-0.07832652
10	0x3d8ac894	0.067765385
11	0xbb965987	-0.004588309
12	0xbda5a59b	-0.08088227
13	0x3b40f862	0.0029444923
14	0x3d3ff61b	0.046865564
15	0xbd79ac2b	-0.060955208
16	0xbb6b168e	-0.0035871598
17	0x3d354abe	0.044260733
18	0xbda2cde2	-0.07949425
19	0xbd961785	-0.07328705
20	0x3d57169f	0.052511808
21	0x3cd72146	0.026260983
22	0xbce7006c	-0.028198443
23	0xbc35d682	-0.011098506
24	0x3d27bed7	0.040953483
25	0x3d19c25a	0.037538864
26	0xbda74690	-0.081677556
27	0xbd637d80	-0.055539608
28	0x3d3e6f40	0.046492815
29	0xbdaa4d50	-0.083155274
30	0x3d6a8ece	0.057265095
31	0x3dab6e2a	0.083706215
32	0x3d916bfb	0.07100674
33	0xbd23492b	-0.0398647
34	0xbc7406c4	-0.014894191
35	0xbd88a034	-0.06671181
36	0xbd911578	-0.07084173
37	0xbcfdd62a	-0.03098591
38	0x3d92b5d8	0.0716359
39	0xbda6c2ee	-0.08142649
40	0x3d5d9e97	0.05410632
41	0x3d5f776f	0.05455726
42	0x3dd0de4f	0.10198652
43	0xbd86290a	-0.06550796
44	0x3d9b5272	0.075840846
45	0x3d42f2b0	0.047594726
46	0x3c6629c8	0.014048047
47	0xbd3d0c07	-0.04615405
48	0x388e212d	6.777267e-05
49	0x3d9d7787	0.07688814
50	0xbcaf4414	-0.021394767
51	0xbda1567f	-0.07877826
52	0xbc528b87	-0.012850649
53	0xba690dd2	-0.0008890304
54	0x3debb487	0.11509042
55	0xbca4613b	-0.020065894
56	0x3d4ea676	0.05045172
57	0xbd9134b9	-0.07090134
58	0x3ddaad0f	0.106775396
59	0x3d427380	0.04747343
60	0xbd6dec44	-0.05808665
61	0xbd8341c2	-0.06409027
62	0x3d7446db	0.059637886
63	0x3d24281e	0.04007732
64	0xbc49a2b1	-0.012306855
65	0x3dacb954	0.08433786
66	0x3d4b3737	0.049613204
67	0x3d984b43	0.0743623
68	0xbd8ff0c5	-0.07028345
69	0x3d063327	0.032763626
70	0x3d960ab9	0.07326264
71	0x3dc57371	0.09641159
72	0xbd726e9c	-0.059187517
73	0x3d5e5e61	0.054289225
74	0xbd4162d6	-0.047213398
75	0x3be9defd	0.007137178
76	0xbc370e4f	-0.011172845
77	0x3dc4592b	0.0958732
78	0x3d8700fa	0.06591983
79	0x3dbb94ae	0.09159218
80	0x3cbf0185	0.023316154
81	0xbd3d9324	-0.046282902
82	0xbda4616d	-0.08026395
83	0xbd3bae50	-0.045820534

fc3.weight f4 [10, 84]
0	0xbdd30595	-0.10303799
1	0x3b82dfd2	0.0039939666
2	0xbe80857e	-0.25101846
3	0xbda6334c	-0.08115253
4	0x3c0e8680	0.0086990595
5	0x3d8b1c10	0.06792462
6	0x3d15cd0a	0.036572494
7	0xbd98a091	-0.074525006
8	0x3c5014a4	0.012700234
9	0x3d2f9a5b	0.042871814
10	0xbd459e49	-0.048246656
11	0x3cf74865	0.030185888
12	0x3dd4095a	0.10353346
13	0xbc41c98f	-0.0118278405
14	0xbd9e6438	-0.07733959
15	0x3d1dc39c	0.038516626
16	0x3e0f7f5f	0.14013432
17	0xbe10bf55	-0.14135487
18	0xbda54b08	-0.08070952
19	0x3d06cf5b	0.032912593
20	0xbe19b25a	-0.15009442
21	0xbe7cfb17	-0.24705158
22	0x3dd6d0d5	0.1048905
23	0x3dabee1c	0.08395025
24	0x3e7f9433	0.24958877
25	0x3e0509b2	0.1299198
26	0x3cec1984	0.02882076
27	0x3dd76ce6	0.105188176
28	0x3dacc4a8	0.08435947
29	0xbd913009	-0.0708924
30	0xbe589a7f	-0.21152686
31	0x3e1723dd	0.14759775
32	0x3d4e011c	0.050294027
33	0xbdaab50f	-0.083353154
34	0xbdd27d2e	-0.102777824
35	0x3d12006a	0.035644926
36	0xbd394874	-0.045235112
37	0x3d318e33	0.043348502
38	0x3d0b1a91	0.033960883
39	0xbd7da477	-0.061924424
40	0xbdd782c8	-0.105229914
41	0xbc978473	-0.018495774
42	0x3b741bb2	0.0037247953
43	0x3d8428ec	0.06453118
44	0xbd20fed3	-0.03930552
45	0x3e3b741d	0.18306012
46	0x3dc1445b	0.09436866
47	0x3dc96d67	0.0983532
48	0x3d449a8d	0.047998954
49	0x3d701f7c	0.058623776
50	0xbaeed0a2	-0.0018220136
51	0x3dc4797c	0.09593484
52	0x3bda31ab	0.006658753
53	0x3e02f395	0.12788232
54	0x3e457c13	0.19285612
55	0x3ca54267	0.020173265
56	0x3d7a6eaf	0.061140712
57	0xbd961c13	-0.073295735
58	0x3d0014e6	0.03126993
59	0x3ca5b915	0.020229856
60	0xbd93ae1f	-0.07210945
61	0xbd3209a2	-0.043466218
62	0xbe087b5f	-0.13328312
63	0xbdd25223	-0.102695726
64	0xbce73ba9	-0.02822669
65	0xbd5480cd	-0.051880646
66	0x3d05f29f	0.032702085
67	0xbda7ee8b	-0.08199795
68	0x3db1e105	0.08685497
69	0x3dea79b0	0.11448991
70	0x3d73e053	0.059540104
71	0xbda1dedb	-0.079038344
72	0x3d436e0d	0.047712374
73	0xbd499fc2	-0.049224623
74	0x3d781719	0.060568903
75	0xbe140f45	-0.1445895
76	0xbe073ac1	-0.13206007
77	0x3da2ebc0	0.07955122
78	0x3dda3680	0.10654926
79	0xbe45ea68	-0.193277
80	0x3d9e9499	0.077431865
81	0x3bc687b0	0.0060586557
82	0xbdc29ca7	-0.09502535
83	0xbd2f33d5	-0.04277404
84	0xbdf586e4	-0.11988619
85	0x3dc646d7	0.096814804
86	0x3c2d5189	0.0105785215
87	0xbe3d6c06	-0.18498239
88	0xbdb2e4d2	-0.0873505
89	0xbd8c3d7b	-0.06847664
90	0x3c44c8ae	0.012010736
91	0xbdd04083	-0.10168555
92	0xbd33a236	-0.04385587
93	0xbc2d42de	-0.010575024
94	0x3e22cbdc	0.15898079
95	0xbdbdebe7	-0.092735104
96	0xbdd3bace	-0.103383645
97	0xbd34cf5b	-0.044143062
98	0xbe16c0c5	-0.14721973
99	0xbdc00a81	-0.093770035
100	0xbe2c0bb7	-0.16801344
101	0xbd7c8d78	-0.061658353
102	0xbddb399b	-0.10704347
103	0x3dcc46f4	0.09974471
104	0xbdf0e4c1	-0.11762381
105	0x3df70b8e	0.12062751
106	0x3dd310cd	0.10305939
107	0x3c321fb2	0.010871815
108	0xbe4ba601	-0.19887544
109	0x3cdab6ed	0.026698554
110	0x3dc126f9	0.094312616
111	0x3d66ee04	0.056379333
112	0x3be73ef7	0.0070570665
113	0xbd8ca2c5	-0.06866983
114	0xbd418dd6	-0.047254406
115	0x3c873971	0.016506882
116	0x3d8db167	0.069186024
117	0xbcae6fac	-0.021293484
118	0xbdc4d231	-0.09610403
119	0xbb9983c0	-0.0046848953
120	0xbd3d7f03	-0.046263706
121	0x3da10314	0.07861915
122	0xbc76953c	-0.015050229
123	0xbd87a577	-0.06623357
124	0x3e35d7e5	0.17758138
125	0xbd9d2a72	-0.076741114
126	0x3e56fa7c	0.2099399
127	0x3ab65676	0.0013911265
128	0x3dbfab9a	0.09358902
129	0xbd30c703	-0.043158542
130	0x3cd83c44	0.026395924
131	0x37e3f4db	2.7174528e-05
132	0xbd29f31c	-0.041491613
133	0x3b9dbbba	0.0048136385
134	0x3da277ca	0.07933004
135	0xbdbe6712	-0.09297003
136	0xbd65764d	-0.056021024
137	0x3e8b590b	0.27216372
138	0x3e12c245	0.1433192
139	0xbdcb0a2e	-0.09914051
140	0x3e766baa	0.24064508
141	0x3d41f326	0.047351025
142	0xbd83c826	-0.0643466
143	0xbcbc1df5	-0.022963503
144	0xbda6fdd0	-0.0815388
145	0xbcc05168	-0.023476318
146	0xbce6a2e0	-0.028153837
147	0xbdb8ba46	-0.09019904
148	0x3d3320bf	0.0437324
149	0x3de0741f	0.10959648
150	0xbbffeec7	-0.007810447
151	0x3e0221fa	0.12708274
152	0xbe0a29a1	-0.13492443
153	0x3e10c0a9	0.14135994
154	0x3c8ae34d	0.016954089
155	0xbda82b6b	-0.08211406
156	0xbe05f99b	-0.13083498
157	0xbe0f46ad	-0.13991804
158	0xbcd6e1fa	-0.0262308
159	0xbe81ca32	-0.25349575
160	0x3b870982	0.0041210065
161	0xbd97473a	-0.07386632
162	0x3d57f566	0.052724265
163	0xbe4535ce	-0.19258806
164	0x3e0a9a17	0.13535343
165	0xbcf5366c	-0.029933177
166	0x3c2a5246	0.010395592
167	0xbc380c08	-0.011233337
168	0x3dd97e05	0.106197394
169	0x3dc2f08a	0.095185354
170	0x3c16d05f	0.009204953
171	0x3d37170b	0.04469971
172	0x3e1a6f9f	0.15081643
173	0x3cd1e4eb	0.025621852
174	0x3c7157b2	0.014730381
175	0x3dde30b9	0.10849137
176	0x3dbd0d13	0.09231009
177	0x3cb82040	0.022476315
178	0x3ddd4356	0.10803859
179	0xbd8b2f36	-0.06796114
180	0xbd13d68a	-0.036093272
181	0xbd048746	-0.03235557
182	0x3e74efc5	0.2391959
183	0xbc1cf339	-0.009579473
184	0xbe5c2115	-0.21496995
185	0x3d9cec31	0.076622374
186	0xbcc5c748	-0.024142876
187	0xbdd9828c	-0.10620603
188	0x3e60ba4e	0.2194607
189	0x3d6f3593	0.0584007
190	0xbc5fc400	-0.01365757
191	0xbd757e7b	-0.059935074
192	0xbd92a1d9	-0.07159776
193	0x3dd73add	0.10509274
194	0x3da11f9b	0.078673564
195	0x3c8796e1	0.016551437
196	0x3e06b522	0.13155034
197	0xbd94f0f3	-0.0727252
198	0xbe302588	-0.17201817
199	0xbd3ebb35	-0.046565253
200	0xbe4ff883	-0.20309643
201	0xbd79a443	-0.060947668
202	0xbd76e067	-0.0602726
203	0x3d802e11	0.062587865
204	0xbddaf949	-0.106920786
205	0x3e1bc1e4	0.15210682
206	0x3dd3aa02	0.10335161
207	0xbd5e6a85	-0.054300804
208	0x3e035cd0	0.12828374
209	0xbdd6d095	-0.104890026
210	0x3dbcdafb	0.09221455
211	0x3e71cb7e	0.23612782
212	0x3da97018	0.08273333
213	0x3d375334	0.044757083
214	0xbe2975d6	-0.16548857
215	0xbda02b70	-0.07820785
216	0xbdd98425	-0.10620908
217	0x3dbe1aec	0.09282479
218	0x3977f69b	0.00023647623
219	0xbd1c3917	-0.038140383
220	0xbd68fb72	-0.056880422
221	0x3e5c4df1	0.21514107
222	0x3ddb93e0	0.10721564
223	0x3d2842e1	0.041079406
224	0xbe6fe9dc	-0.23429054
225	0xbe11d75b	-0.14242308
226	0x3d71c354	0.05902417
227	0x3ddb53ae	0.1070932
228	0x3c0d84c0	0.008637607
229	0x3cc18e2c	0.023627363
230	0x3e03a3a4	0.12855393
231	0x3d28306a	0.041061796
232	0xbd05f8c5	-0.03270795
233	0xbd8bceaf	-0.06826531
234	0xbd5f0220	-0.054445386
235	0x3c7b07c3	0.015321675
236	0xbe11c4e1	-0.1423526
237	0xbc24b620	-0.010053188
238	0xbe2ef3c3	-0.17085175
239	0x3db76770	0.08955276
240	0xbc0bb0bc	-0.0085260235
241	0x3daf3dd7	0.08556717
242	0x3dc79b6c	0.09746441
243	0x3ddec75c	0.108778685
244	0xbd20f827	-0.039299157
245	0x3cd93c02	0.026517872
246	0x3d711929	0.058861885
247	0xbc7ce01f	-0.015434294
248	0x3d5025d6	0.050817333
249	0xbdba15bb	-0.09086176
250	0xbd12a531	-0.03580207
251	0x3d7df22b	0.061998527
252	0x3d75c538	0.060002536
253	0x3d42eaca	0.047587194
254	0xbc82bfec	-0.015960656
255	0x3d59a2a2	0.053133614

fc3.bias f4 [10]
0	0xbd954c8b	-0.0728999
1	0x3d9dfc12	0.07714094
2	0x3d6ff807	0.058586147
3	0x3d6e4145	0.058167715
4	0xbb001ce0	-0.001954846
5	0x3d380fd6	0.044936977
6	0xbd346036	-0.044037066
7	0x3d6b907f	0.05751085
8	0xbd2443ad	-0.040103603
9	0xbabd546f	-0.0014444719
